rust_intermediates.safetensors (safetensors, 657556 bytes, 3 tensors)

f0 f4 [1, 1, 171]
00000000: d307 a13e 3ac3 033e 6888 643d 8c92 d73d
00000010: 1e11 223f 24a5 293f 3204 2c3f 69fc 2b3f
00000020: 1968 3d3f ae4b 3c3f 18d5 333f 048c 4b3f
00000030: 925a 393f 44d0 603f 7fc7 dc3e 6333 b041
00000040: 0e3e d340 07c2 6643 3bd0 8c44 d35c a044
00000050: bfff b244 1851 5144 3ddc 2343 a407 b743
00000060: b875 3544 d83b 8d44 e3f7 d344 72c4 9b44
00000070: 75e8 d541 e949 a043 6a02 b843 5bf5 ca43
00000080: a450 dc43 cb3a e343 3631 df43 ee8d cd43
00000090: 68a9 aa43 39bb bb44 4958 6d44 6045 dd45
000000a0: efa3 7346 a7b9 ec46 1ec2 2947 6560 4947
000000b0: 1349 5147 a1f5 5947 5578 4247 7f71 1047
000000c0: 3101 f746 77e8 1547 dca1 4a47 4425 8547
000000d0: 343e 9147 0505 7747 6ddb 0047 5aaf ae45
000000e0: 1f23 7c43 5976 023f 009c f73a a57d a341
000000f0: fc68 9242 d0cf 5f42 625e c041 24a0 9842
00000100: 780c 1f43 41f9 8343 0591 8e43 7456 8643
00000110: 9ed8 8143 6454 8f43 c929 8a43 cd26 8c43
00000120: 7fb9 8d43 2fe2 c140 67f9 1542 f07c ac44
00000130: 5601 b445 9c62 1646 b308 0a46 46b3 9d45
00000140: b3e3 c944 14e3 6642 9a32 fc41 baf0 df41
00000150: 3d1c 1544 5b9c 7445 e747 5546 4681 2247
00000160: c3b6 9047 9e11 8e47 1f5b 2d47 1474 9b46
00000170: ca91 ef46 065d 8c47 0253 ca47 86c8 c947
00000180: ef46 a747 8211 9147 7094 8747 4ded 5947
00000190: 8c91 2347 9853 3346 8026 b144 f9cb 0c44
000001a0: 60f0 693c deb5 1a43 86b9 b243 a077 b543
000001b0: 03f0 9a43 7a18 bd42 1904 8c43 1784 0c45
000001c0: f6c7 fc45 5544 5c46 c17f 5146 9ed3 e245
000001d0: c102 4841 f864 d243 c8d2 d743 b25d d043
000001e0: 51bd c843 e196 ad43 3514 d644 54ae 9443
000001f0: 8091 d945 eaf2 2b46 2caf 2e46 3cb6 1946
00000200: 2f7e 1446 47f6 1046 db80 0f46 a234 1446
00000210: 10d9 d945 1efa 6945 75bd 9844 84b8 b044
00000220: 088c ae45 5fea 1047 bc3a 9f47 eff3 a347
00000230: 824a 4747 6ab6 5746 be67 6143 d538 d044
00000240: 9ba8 3f45 db9e fb45 1c65 1c46 0317 0146
00000250: f336 d345 569b 8845 ee84 cf45 f8fe 7546
00000260: 1047 1e47 92f6 7c47 5647 4747 50e1 bb46
00000270: c90a 4a44 6bbe f33f 79a6 ee40 fd9f 8b43
00000280: e453 a73f d057 3b3f c93e 3f3f 0c5e 403f
00000290: d45d 503f 825d 333f 4c72 143f d8c3 2c3f
000002a0: cf02 233f 82a5 053f e1a7 033f
0.31451282 0.12867442 0.05579415 0.105259985 0.6330737 0.6626761 0.671939 0.6718202
0.73986965 0.7355298 0.7024703 0.7951052 0.72403824 0.8781779 0.43120953 22.025091
6.601325 230.75792 1126.5072 1282.9008 1431.9921 837.2671 163.8603 366.0597
725.83936 1129.8701 1695.7465 1246.1389 26.738504 320.57742 368.01886 405.91684
440.63 454.45932 446.38446 411.10883 341.3235 1501.8507 949.37946 7080.672
15592.983 30300.826 43458.117 51552.395 53577.074 55797.63 49784.332 36977.496
31616.596 38376.465 51873.86 68170.53 74364.41 63237.02 32987.426 5589.919
252.13719 0.50961834 0.0018891096 20.43635 73.20505 55.95294 24.046085 76.312775
159.0487 263.9473 285.13297 268.6754 259.69232 286.6593 276.32645 280.30313
283.4492 6.0588603 37.493557 1379.9043 5760.167 9624.652 8834.175 5046.409
1615.1156 57.721756 31.524708 27.992542 596.4412 3913.7722 13649.976 41601.273
74093.52 72739.234 44379.12 19898.04 30664.895 71866.05 103590.016 103313.05
85645.87 74275.016 69416.875 55789.3 41873.547 11476.898 1417.2031 563.1871
0.014278501 154.71042 357.4494 362.93457 309.8751 94.547806 280.032 2248.2556
8088.995 14097.083 13407.938 7258.452 12.500672 420.78882 431.64673 416.732
401.47903 347.17874 1712.6315 297.36194 6962.1875 11004.729 11179.793 9837.559
9503.546 9277.569 9184.214 9485.158 6971.133 3743.6323 1221.9205 1413.7661
5585.504 37098.37 81525.47 83943.87 51018.508 13805.604 225.40524 1665.776
3066.5378 8051.857 10009.277 8261.753 6758.8687 4371.417 6640.616 15743.742
40519.062 64758.57 51015.336 24048.656 808.1685 1.9042486 7.4578214 279.2499
1.3072476 0.73180866 0.7470518 0.75143504 0.8139317 0.70064557 0.57986903 0.67486334
0.6367616 0.5220567 0.5142804

source f4 [1, 1, 82080]
00000000: 8604 54bc 685a ef3b 32bf 163c 5d65 7c3c
00000010: d080 fe3b 5d13 69bc 4f26 d33a 86c9 903c
00000020: 00b6 29bb 9593 153c 3ee8 2f3c ba97 003b
00000030: 044a 033c 3837 69bc 2a5f 263c 85aa 023c
00000040: d1c4 753c 9e0d 87bc b8c0 00bc b2d1 babb
00000050: 0757 de3b ff60 89bc 1ed2 863a 6cd0 7d3c
00000060: 485a c7bb 008e 0dbb c16c 95bc d3d6 ad39
00000070: aac2 943c fd79 0c3b a977 06bb 7c5a 513c
00000080: 06d9 9c3c 02a7 563b b66f fc3b 67ea 103c
00000090: 6f97 18bc d38a 8cbb 9a16 603c 51f3 fcba
000000a0: 628b 233c 46fe b13c 0ca9 683c 570e 52bc
000000b0: 0e7a 37bc d065 1d3b 380f cabb 62cc 6d3c
000000c0: 7904 833b 5946 dcba f723 4ebc 85f8 27bc
000000d0: f319 c439 91cc 343c 3636 823c fecf 65bb
000000e0: 1ce5 a4ba 6a2b fc3b ea65 4ebc 04c3 46bb
000000f0: 55d0 a43b 4c6a 313c 2f92 d3bb b0e9 1d3c
00000100: 9c3a b73b a36a c6bb 40ff 99bb 3097 963c
00000110: b053 4ab9 b0b1 d93b f150 13bc c63c 92bc
00000120: 6804 633b 173f 65bc c908 153a 84cc b9ba
00000130: 963d f7ba 7415 173b 505b 9f3c 9bc1 a83b
00000140: 8f27 133a fb4e 5fbb 385e 433c be0a d2bc
00000150: 7108 ef3b 1c8f 35bc 6e4f 3b3c 01e2 49bc
00000160: 5680 863c 430e e939 ebf0 8c3b 4de0 9e3b
00000170: 20d1 543b 3df2 a43b d956 8fbb 154d 88bc
00000180: 171e babb acbb 30bc 7d35 de3a ef7a 10b9
00000190: 1802 1039 5f4d 89bc e900 f53b f9b8 75bc
000001a0: fddb 74bc dda4 843c ae90 9abc 4581 b83b
000001b0: c057 3e38 61a6 4ebb 1e23 4e3c 261a 2d3c
000001c0: 96c7 c23c 7eb4 f33c e970 b9bb ce8b e53b
000001d0: e8ac 043a a4fe cbbb ec96 6b3b 8eb0 39bc
000001e0: a018 c1b8 fc24 a1bb c63d fbbb 0ff9 90bb
000001f0: fe91 96bb 0066 713a 7e7c 8f3b 7b29 b93b
00000200: 0adf 0b3c 1dc6 39bc 430c 86ba fb00 fabb
00000210: 65a8 3a3c c8ba 743b ea6c 9c3b 4550 12bc
00000220: 0d64 07bb 8626 a73b 03dc 843c 9439 66bb
00000230: b725 483c 70dc 8cbc bc13 0f3c df12 a83c
00000240: 40b5 153b 7c16 8a3c 754d c8bb d1e7 e03b
00000250: 07e6 6b3c 7d4b 07bc af29 09ba 4a99 cebb
00000260: c6b4 823c a792 233c a48c 5e3b 1a4b 0bbc
00000270: 2859 b1bb 53e1 013a d50a 4c3b d248 663c
00000280: 6233 02bb f961 883b fae5 65bb 474b f9b9
00000290: da21 213c f9dd 41bc 5cc7 4a3c 00eb 62b9
000002a0: 70bb 1abb c249 22bb 7bb8 ef39 d2e1 8d3c
000002b0: 8339 d2bb c283 78bb 13fd 92bc b288 043c
000002c0: 9495 9d3c f884 9d3b 98fb 543c d815 083c
000002d0: 3395 a43b df1d 553c b4f3 49bc 5da3 aebc
000002e0: 16de 7f3b 0e37 60bc e17b 89ba 6735 31bc
000002f0: 2604 db3b 58aa 433c 7ac2 ce3b 8668 00bd
00000300: 21ee 643c 0ebf d3ba 2e90 343c 06fa 653b
00000310: 7e65 e4bb 371f 613c f50b e03b d1f8 6abc
00000320: 39ec 103c f88f e23b 84d2 403c ef39 423c
00000330: c179 bbbb 5b27 3c3c 233e 5ebc ebcb 09bc
00000340: d558 bf3b f8b8 c93b 9156 253a 14ce f1bb
00000350: 5ee4 da3b a02d 93bb 6c16 593b a026 87b8
00000360: fd83 8f3c 48f0 b23b 5a36 bdbc 7bed 14bb
00000370: 56f3 043b 3a1d 2b3c 3034 73b9 de92 c23b
00000380: e372 783c 9134 9e3a a188 913c 1248 e5bb
00000390: 0f2e 42bc 1d73 883c c28c 803c 56d8 c5bc
000003a0: efda 82bc 2138 0c3c c1a1 b0bc 93ee a6bc
000003b0: f37a b5bb f2ae 623c 7b31 a23b 2ce6 09ba
000003c0: e70b 713c c720 663c 0778 08bb 32a3 01bc
000003d0: 1257 733b 505c f13b 2d25 0f3c a5fd 933c
000003e0: dd3f 72bc c04b 633c 9de2 a93b 4bb3 e5ba
000003f0: 54f9 a83b 20fd c93b 6780 7bbb 7d22 88bc
-0.012940532 0.0073044784 0.009200858 0.015405026 0.0077668205 -0.014225808 0.0016109439 0.017674219
-0.0025895834 0.009129425 0.010736523 0.0019621686 0.008013252 -0.014234357 0.010154525 0.007975225
0.015000538 -0.016485985 -0.007858448 -0.005701267 0.006785277 -0.016769884 0.0010286008 0.015491586
-0.0060837604 -0.0021599531 -0.018240334 0.00033157188 0.01815923 0.0021435015 -0.00205181 0.012777921
0.019146454 0.0032753353 0.0077037467 0.008844948 -0.009313448 -0.00428901 0.013677264 -0.0019298588
0.009981962 0.021727692 0.01420046 -0.012820802 -0.011198534 0.0024016984 -0.006166365 0.014514061
0.003998336 -0.0016805633 -0.012581817 -0.010252123 0.00037403367 0.011035101 0.01589499 -0.00350666
-0.0012580487 0.007695605 -0.01259754 -0.003032864 0.005029718 0.010828566 -0.0064566354 0.009638235
0.0055917036 -0.0060551926 -0.0046996176 0.018382639 -0.00019295397 0.0066434965 -0.008991466 -0.017851245
0.0034640078 -0.013992093 0.0005685208 -0.001417533 -0.0018862959 0.0023053559 0.01945272 0.0051500327
0.00056134997 -0.0034074176 0.011924319 -0.025639888 0.0072947075 -0.011081483 0.011432512 -0.01232195
0.016418617 0.0004445185 0.0043011806 0.004848516 0.003247328 0.00503376 -0.0043743667 -0.016638318
-0.0056798565 -0.010786932 0.0016953197 -0.00013778706 0.0001373369 -0.016760526 0.007476915 -0.014997714
-0.014945027 0.016191894 -0.018867817 0.0056306445 4.5381254e-05 -0.0031532275 0.012581615 0.010565316
0.02377681 0.029749151 -0.005659212 0.0070051914 0.00050611654 -0.006225424 0.003594811 -0.011333598
-9.207544e-05 -0.004917739 -0.007667276 -0.0044242213 -0.0045950403 0.00092086196 0.0043788543 0.005650697
0.008537063 -0.011338738 -0.0010227043 -0.0076295114 0.011392687 0.0037342776 0.0047737258 -0.008930271
-0.0020659 0.005101028 0.016218191 -0.0035129534 0.012216023 -0.017194957 0.008732732 0.020516811
0.002284363 0.016856425 -0.006112749 0.006863572 0.0143981045 -0.008257744 -0.00052323466 -0.0063048946
0.01595534 0.009983695 0.003395834 -0.008501792 -0.0054122396 0.00049545354 0.0031134386 0.014055448
-0.0019867052 0.00416207 -0.0035079704 -0.00047549067 0.009834731 -0.011832708 0.012376633 -0.00021640584
-0.0023610257 -0.0024763201 0.0004572308 0.017319594 -0.0064155473 -0.003792033 -0.01794294 0.008089231
0.019236363 0.004807111 0.012999438 0.008305989 0.0050226687 0.01300761 -0.01232617 -0.021318132
0.0039042286 -0.013685001 -0.0010489189 -0.010815955 0.006683844 0.011942469 0.0063098045 -0.03134968
0.01397279 -0.0016154961 0.011020703 0.0035091653 -0.0069701066 0.013740352 0.006837363 -0.014341549
0.008845382 0.006914135 0.011768941 0.011854633 -0.0057213013 0.011483992 -0.013564619 -0.008410434
0.005839447 0.006156083 0.000630715 -0.0073793028 0.0066800555 -0.004491523 0.0033124937 -6.444496e-05
0.017518992 0.0054607727 -0.023097206 -0.0022724557 0.002028664 0.01044398 -0.00023193727 0.005937918
0.01516411 0.0012070109 0.017765345 -0.006997117 -0.011851802 0.016656453 0.015692119 -0.024151009
-0.015973536 0.008558304 -0.021561505 -0.020377433 -0.0055383383 0.0138356555 0.004949746 -0.00052604335
0.01471231 0.014045901 -0.0020823495 -0.007912444 0.0037130755 0.007365741 0.008736891 0.018065283
-0.014785734 0.013873041 0.005184485 -0.0017524747 0.0051566754 0.006164208 -0.0038376094 -0.016618008

upsampled_f0 f4 [1, 1, 82080]
00000000: d307 a13e d307 a13e d307 a13e d307 a13e
00000010: d307 a13e d307 a13e d307 a13e d307 a13e
00000020: d307 a13e d307 a13e d307 a13e d307 a13e
00000030: d307 a13e d307 a13e d307 a13e d307 a13e
00000040: d307 a13e d307 a13e d307 a13e d307 a13e
00000050: d307 a13e d307 a13e d307 a13e d307 a13e
00000060: d307 a13e d307 a13e d307 a13e d307 a13e
00000070: d307 a13e d307 a13e d307 a13e d307 a13e
00000080: d307 a13e d307 a13e d307 a13e d307 a13e
00000090: d307 a13e d307 a13e d307 a13e d307 a13e
000000a0: d307 a13e d307 a13e d307 a13e d307 a13e
000000b0: d307 a13e d307 a13e d307 a13e d307 a13e
000000c0: d307 a13e d307 a13e d307 a13e d307 a13e
000000d0: d307 a13e d307 a13e d307 a13e d307 a13e
000000e0: d307 a13e d307 a13e d307 a13e d307 a13e
000000f0: d307 a13e d307 a13e d307 a13e d307 a13e
00000100: d307 a13e d307 a13e d307 a13e d307 a13e
00000110: d307 a13e d307 a13e d307 a13e d307 a13e
00000120: d307 a13e d307 a13e d307 a13e d307 a13e
00000130: d307 a13e d307 a13e d307 a13e d307 a13e
00000140: d307 a13e d307 a13e d307 a13e d307 a13e
00000150: d307 a13e d307 a13e d307 a13e d307 a13e
00000160: d307 a13e d307 a13e d307 a13e d307 a13e
00000170: d307 a13e d307 a13e d307 a13e d307 a13e
00000180: d307 a13e d307 a13e d307 a13e d307 a13e
00000190: d307 a13e d307 a13e d307 a13e d307 a13e
000001a0: d307 a13e d307 a13e d307 a13e d307 a13e
000001b0: d307 a13e d307 a13e d307 a13e d307 a13e
000001c0: d307 a13e d307 a13e d307 a13e d307 a13e
000001d0: d307 a13e d307 a13e d307 a13e d307 a13e
000001e0: d307 a13e d307 a13e d307 a13e d307 a13e
000001f0: d307 a13e d307 a13e d307 a13e d307 a13e
00000200: d307 a13e d307 a13e d307 a13e d307 a13e
00000210: d307 a13e d307 a13e d307 a13e d307 a13e
00000220: d307 a13e d307 a13e d307 a13e d307 a13e
00000230: d307 a13e d307 a13e d307 a13e d307 a13e
00000240: d307 a13e d307 a13e d307 a13e d307 a13e
00000250: d307 a13e d307 a13e d307 a13e d307 a13e
00000260: d307 a13e d307 a13e d307 a13e d307 a13e
00000270: d307 a13e d307 a13e d307 a13e d307 a13e
00000280: d307 a13e d307 a13e d307 a13e d307 a13e
00000290: d307 a13e d307 a13e d307 a13e d307 a13e
000002a0: d307 a13e d307 a13e d307 a13e d307 a13e
000002b0: d307 a13e d307 a13e d307 a13e d307 a13e
000002c0: d307 a13e d307 a13e d307 a13e d307 a13e
000002d0: d307 a13e d307 a13e d307 a13e d307 a13e
000002e0: d307 a13e d307 a13e d307 a13e d307 a13e
000002f0: d307 a13e d307 a13e d307 a13e d307 a13e
00000300: d307 a13e d307 a13e d307 a13e d307 a13e
00000310: d307 a13e d307 a13e d307 a13e d307 a13e
00000320: d307 a13e d307 a13e d307 a13e d307 a13e
00000330: d307 a13e d307 a13e d307 a13e d307 a13e
00000340: d307 a13e d307 a13e d307 a13e d307 a13e
00000350: d307 a13e d307 a13e d307 a13e d307 a13e
00000360: d307 a13e d307 a13e d307 a13e d307 a13e
00000370: d307 a13e d307 a13e d307 a13e d307 a13e
00000380: d307 a13e d307 a13e d307 a13e d307 a13e
00000390: d307 a13e d307 a13e d307 a13e d307 a13e
000003a0: d307 a13e d307 a13e d307 a13e d307 a13e
000003b0: d307 a13e d307 a13e d307 a13e d307 a13e
000003c0: d307 a13e d307 a13e d307 a13e d307 a13e
000003d0: d307 a13e d307 a13e d307 a13e d307 a13e
000003e0: d307 a13e d307 a13e d307 a13e d307 a13e
000003f0: d307 a13e d307 a13e d307 a13e d307 a13e
0.31451282 0.31451282 0.31451282 0.31451282 0.31451282 0.31451282 0.31451282 0.31451282
0.31451282 0.31451282 0.31451282 0.31451282 0.31451282 0.31451282 0.31451282 0.31451282
0.31451282 0.31451282 0.31451282 0.31451282 0.31451282 0.31451282 0.31451282 0.31451282
0.31451282 0.31451282 0.31451282 0.31451282 0.31451282 0.31451282 0.31451282 0.31451282
0.31451282 0.31451282 0.31451282 0.31451282 0.31451282 0.31451282 0.31451282 0.31451282
0.31451282 0.31451282 0.31451282 0.31451282 0.31451282 0.31451282 0.31451282 0.31451282
0.31451282 0.31451282 0.31451282 0.31451282 0.31451282 0.31451282 0.31451282 0.31451282
0.31451282 0.31451282 0.31451282 0.31451282 0.31451282 0.31451282 0.31451282 0.31451282
0.31451282 0.31451282 0.31451282 0.31451282 0.31451282 0.31451282 0.31451282 0.31451282
0.31451282 0.31451282 0.31451282 0.31451282 0.31451282 0.31451282 0.31451282 0.31451282
0.31451282 0.31451282 0.31451282 0.31451282 0.31451282 0.31451282 0.31451282 0.31451282
0.31451282 0.31451282 0.31451282 0.31451282 0.31451282 0.31451282 0.31451282 0.31451282
0.31451282 0.31451282 0.31451282 0.31451282 0.31451282 0.31451282 0.31451282 0.31451282
0.31451282 0.31451282 0.31451282 0.31451282 0.31451282 0.31451282 0.31451282 0.31451282
0.31451282 0.31451282 0.31451282 0.31451282 0.31451282 0.31451282 0.31451282 0.31451282
0.31451282 0.31451282 0.31451282 0.31451282 0.31451282 0.31451282 0.31451282 0.31451282
0.31451282 0.31451282 0.31451282 0.31451282 0.31451282 0.31451282 0.31451282 0.31451282
0.31451282 0.31451282 0.31451282 0.31451282 0.31451282 0.31451282 0.31451282 0.31451282
0.31451282 0.31451282 0.31451282 0.31451282 0.31451282 0.31451282 0.31451282 0.31451282
0.31451282 0.31451282 0.31451282 0.31451282 0.31451282 0.31451282 0.31451282 0.31451282
0.31451282 0.31451282 0.31451282 0.31451282 0.31451282 0.31451282 0.31451282 0.31451282
0.31451282 0.31451282 0.31451282 0.31451282 0.31451282 0.31451282 0.31451282 0.31451282
0.31451282 0.31451282 0.31451282 0.31451282 0.31451282 0.31451282 0.31451282 0.31451282
0.31451282 0.31451282 0.31451282 0.31451282 0.31451282 0.31451282 0.31451282 0.31451282
0.31451282 0.31451282 0.31451282 0.31451282 0.31451282 0.31451282 0.31451282 0.31451282
0.31451282 0.31451282 0.31451282 0.31451282 0.31451282 0.31451282 0.31451282 0.31451282
0.31451282 0.31451282 0.31451282 0.31451282 0.31451282 0.31451282 0.31451282 0.31451282
0.31451282 0.31451282 0.31451282 0.31451282 0.31451282 0.31451282 0.31451282 0.31451282
0.31451282 0.31451282 0.31451282 0.31451282 0.31451282 0.31451282 0.31451282 0.31451282
0.31451282 0.31451282 0.31451282 0.31451282 0.31451282 0.31451282 0.31451282 0.31451282
0.31451282 0.31451282 0.31451282 0.31451282 0.31451282 0.31451282 0.31451282 0.31451282
0.31451282 0.31451282 0.31451282 0.31451282 0.31451282 0.31451282 0.31451282 0.31451282
