rust_flow_debug.safetensors (safetensors, 220324 bytes, 6 tensors)

cond f4 [1, 80, 171]
000000 00 00 00 00 00 00 00 00 00 00 00 00 00 00 00 00
       0.0 0.0 0.0 0.0
000010 00 00 00 00 00 00 00 00 00 00 00 00 00 00 00 00
       0.0 0.0 0.0 0.0
000020 00 00 00 00 00 00 00 00 00 00 00 00 00 00 00 00
       0.0 0.0 0.0 0.0
000030 00 00 00 00 00 00 00 00 00 00 00 00 00 00 00 00
       0.0 0.0 0.0 0.0
000040 00 00 00 00 00 00 00 00 00 00 00 00 00 00 00 00
       0.0 0.0 0.0 0.0
000050 00 00 00 00 00 00 00 00 00 00 00 00 00 00 00 00
       0.0 0.0 0.0 0.0
000060 00 00 00 00 00 00 00 00 00 00 00 00 00 00 00 00
       0.0 0.0 0.0 0.0
000070 00 00 00 00 00 00 00 00 00 00 00 00 00 00 00 00
       0.0 0.0 0.0 0.0
000080 00 00 00 00 00 00 00 00 00 00 00 00 00 00 00 00
       0.0 0.0 0.0 0.0
000090 00 00 00 00 00 00 00 00 00 00 00 00 00 00 00 00
       0.0 0.0 0.0 0.0
0000a0 00 00 00 00 00 00 00 00 00 00 00 00 00 00 00 00
       0.0 0.0 0.0 0.0
0000b0 00 00 00 00 00 00 00 00 00 00 00 00 00 00 00 00
       0.0 0.0 0.0 0.0
0000c0 00 00 00 00 00 00 00 00 00 00 00 00 00 00 00 00
       0.0 0.0 0.0 0.0
0000d0 00 00 00 00 00 00 00 00 00 00 00 00 00 00 00 00
       0.0 0.0 0.0 0.0
0000e0 00 00 00 00 00 00 00 00 00 00 00 00 00 00 00 00
       0.0 0.0 0.0 0.0
0000f0 00 00 00 00 00 00 00 00 00 00 00 00 00 00 00 00
       0.0 0.0 0.0 0.0
000100 00 00 00 00 00 00 00 00 00 00 00 00 00 00 00 00
       0.0 0.0 0.0 0.0
000110 00 00 00 00 00 00 00 00 00 00 00 00 00 00 00 00
       0.0 0.0 0.0 0.0
000120 00 00 00 00 00 00 00 00 00 00 00 00 00 00 00 00
       0.0 0.0 0.0 0.0
000130 00 00 00 00 00 00 00 00 00 00 00 00 00 00 00 00
       0.0 0.0 0.0 0.0
000140 00 00 00 00 00 00 00 00 00 00 00 00 00 00 00 00
       0.0 0.0 0.0 0.0
000150 00 00 00 00 00 00 00 00 00 00 00 00 00 00 00 00
       0.0 0.0 0.0 0.0
000160 00 00 00 00 00 00 00 00 00 00 00 00 00 00 00 00
       0.0 0.0 0.0 0.0
000170 00 00 00 00 00 00 00 00 00 00 00 00 00 00 00 00
       0.0 0.0 0.0 0.0
000180 00 00 00 00 00 00 00 00 00 00 00 00 00 00 00 00
       0.0 0.0 0.0 0.0
000190 00 00 00 00 00 00 00 00 00 00 00 00 00 00 00 00
       0.0 0.0 0.0 0.0
0001a0 00 00 00 00 00 00 00 00 00 00 00 00 00 00 00 00
       0.0 0.0 0.0 0.0
0001b0 00 00 00 00 00 00 00 00 00 00 00 00 00 00 00 00
       0.0 0.0 0.0 0.0
0001c0 00 00 00 00 00 00 00 00 00 00 00 00 00 00 00 00
       0.0 0.0 0.0 0.0
0001d0 00 00 00 00 00 00 00 00 00 00 00 00 00 00 00 00
       0.0 0.0 0.0 0.0
0001e0 00 00 00 00 00 00 00 00 00 00 00 00 00 00 00 00
       0.0 0.0 0.0 0.0
0001f0 00 00 00 00 00 00 00 00 00 00 00 00 00 00 00 00
       0.0 0.0 0.0 0.0
000200 00 00 00 00 00 00 00 00 00 00 00 00 00 00 00 00
       0.0 0.0 0.0 0.0
000210 00 00 00 00 00 00 00 00 00 00 00 00 00 00 00 00
       0.0 0.0 0.0 0.0
000220 00 00 00 00 00 00 00 00 00 00 00 00 00 00 00 00
       0.0 0.0 0.0 0.0
000230 00 00 00 00 00 00 00 00 00 00 00 00 00 00 00 00
       0.0 0.0 0.0 0.0
000240 00 00 00 00 00 00 00 00 00 00 00 00 00 00 00 00
       0.0 0.0 0.0 0.0
000250 00 00 00 00 00 00 00 00 00 00 00 00 00 00 00 00
       0.0 0.0 0.0 0.0
000260 00 00 00 00 00 00 00 00 00 00 00 00 00 00 00 00
       0.0 0.0 0.0 0.0
000270 00 00 00 00 00 00 00 00 00 00 00 00 00 00 00 00
       0.0 0.0 0.0 0.0
000280 00 00 00 00 00 00 00 00 00 00 00 00 00 00 00 00
       0.0 0.0 0.0 0.0
000290 00 00 00 00 00 00 00 00 00 00 00 00 00 00 00 00
       0.0 0.0 0.0 0.0
0002a0 00 00 00 00 00 00 00 00 00 00 00 00 00 00 00 00
       0.0 0.0 0.0 0.0
0002b0 00 00 00 00 00 00 00 00 00 00 00 00 00 00 00 00
       0.0 0.0 0.0 0.0
0002c0 00 00 00 00 00 00 00 00 00 00 00 00 00 00 00 00
       0.0 0.0 0.0 0.0
0002d0 00 00 00 00 00 00 00 00 00 00 00 00 00 00 00 00
       0.0 0.0 0.0 0.0
0002e0 00 00 00 00 00 00 00 00 00 00 00 00 00 00 00 00
       0.0 0.0 0.0 0.0
0002f0 00 00 00 00 00 00 00 00 00 00 00 00 00 00 00 00
       0.0 0.0 0.0 0.0
000300 00 00 00 00 00 00 00 00 00 00 00 00 00 00 00 00
       0.0 0.0 0.0 0.0
000310 00 00 00 00 00 00 00 00 00 00 00 00 00 00 00 00
       0.0 0.0 0.0 0.0
000320 00 00 00 00 00 00 00 00 00 00 00 00 00 00 00 00
       0.0 0.0 0.0 0.0
000330 00 00 00 00 00 00 00 00 00 00 00 00 00 00 00 00
       0.0 0.0 0.0 0.0
000340 00 00 00 00 00 00 00 00 00 00 00 00 00 00 00 00
       0.0 0.0 0.0 0.0
000350 00 00 00 00 00 00 00 00 00 00 00 00 00 00 00 00
       0.0 0.0 0.0 0.0
000360 00 00 00 00 00 00 00 00 00 00 00 00 00 00 00 00
       0.0 0.0 0.0 0.0
000370 00 00 00 00 00 00 00 00 00 00 00 00 00 00 00 00
       0.0 0.0 0.0 0.0
000380 00 00 00 00 00 00 00 00 00 00 00 00 00 00 00 00
       0.0 0.0 0.0 0.0
000390 00 00 00 00 00 00 00 00 00 00 00 00 00 00 00 00
       0.0 0.0 0.0 0.0
0003a0 00 00 00 00 00 00 00 00 00 00 00 00 00 00 00 00
       0.0 0.0 0.0 0.0
0003b0 00 00 00 00 00 00 00 00 00 00 00 00 00 00 00 00
       0.0 0.0 0.0 0.0
0003c0 00 00 00 00 00 00 00 00 00 00 00 00 00 00 00 00
       0.0 0.0 0.0 0.0
0003d0 00 00 00 00 00 00 00 00 00 00 00 00 00 00 00 00
       0.0 0.0 0.0 0.0
0003e0 00 00 00 00 00 00 00 00 00 00 00 00 00 00 00 00
       0.0 0.0 0.0 0.0
0003f0 00 00 00 00 00 00 00 00 00 00 00 00 00 00 00 00
       0.0 0.0 0.0 0.0

flow_output f4 [1, 80, 171]
000000 b8 be df c0 eb 0c bb c0 57 f9 06 c1 f5 80 7c c1
       -6.992031 -5.845327 -8.435874 -15.781484
000010 a0 d9 5d c1 22 70 85 c1 fa d5 74 c1 87 69 87 c1
       -13.865631 -16.679752 -15.30224 -16.926527
000020 bb 6a 8a c1 ba da 70 c1 fa 3b 8a c1 61 a5 8b c1
       -17.302114 -15.0534 -17.279285 -17.455751
000030 d6 f1 60 c1 3a a3 48 c1 16 22 c5 c0 09 d6 e6 bf
       -14.059042 -12.53985 -6.160411 -1.8034068
000040 38 12 2a 40 62 d5 80 40 35 3a d0 40 c5 9e d6 40
       2.657362 4.0260477 6.5071054 6.706881
000050 b0 d2 bc 40 0e ea b9 40 2f 49 45 40 f2 c5 36 40
       5.9007187 5.809821 3.0825918 2.8558316
000060 d4 b9 fa 3e 83 ba 1c 3f e3 78 9c bf 2e fe 81 bf
       0.489699 0.61222094 -1.2224392 -1.0155694
000070 39 2d 34 c0 2d 0d 2e c0 de 59 7e c0 01 e3 51 c0
       -2.8152602 -2.7195542 -3.974235 -3.2794802
000080 e0 6c a1 c0 1c 22 73 c0 9f ae 51 c0 c4 2a 5b bf
       -5.0445404 -3.7989569 -3.276283 -0.8561213
000090 2d bb 06 c0 b6 ab 32 c0 af e0 29 c0 30 21 6c c0
       -2.1051743 -2.7917304 -2.6543386 -3.6895256
0000a0 a6 dd 8f c0 d2 01 b3 bf 52 30 63 c0 22 38 88 c0
       -4.4958067 -1.398493 -3.5498242 -4.256852
0000b0 71 82 d9 c0 58 67 62 c0 3f 63 c8 c0 12 7f ac c0
       -6.797173 -3.5375576 -6.262115 -5.3905115
0000c0 26 ab b3 c0 c2 4b a1 c0 57 99 82 c0 02 42 61 c0
       -5.614642 -5.040498 -4.0812182 -3.5196538
0000d0 ea 35 8f c0 1c 55 2d c0 3d e3 90 c0 ac e3 88 c0
       -4.4753313 -2.7083197 -4.527739 -4.277792
0000e0 78 23 99 c0 4f 83 74 c0 09 53 8d c0 dc 37 8e c0
       -4.7855797 -3.8205144 -4.416386 -4.444319
0000f0 84 c4 a4 c0 a8 82 69 c0 5f 52 cc c0 42 a5 83 c0
       -5.1489887 -3.6485996 -6.385055 -4.113923
000100 ed 5b 7c c0 2a d8 94 c0 4e 94 41 c0 0d 77 94 c0
       -3.9431107 -4.651387 -3.0246768 -4.6395326
000110 63 c1 51 c0 33 98 3f c0 50 9f 78 c0 8c fa 52 c0
       -3.2774284 -2.9936645 -3.8847237 -3.2965422
000120 95 71 ad c0 2e cc bd c0 45 e6 c6 c0 04 4a b2 c0
       -5.420115 -5.9311743 -6.215609 -5.571535
000130 6b 59 86 c0 40 f0 8f c0 a7 7b 90 c0 02 41 a5 bf
       -4.1984153 -4.4980774 -4.5150943 -1.2910464
000140 d2 c8 d5 bf 9d f7 0e c0 41 67 2c c0 75 00 bd bf
       -1.670191 -2.233863 -2.693802 -1.4765764
000150 5a 81 30 40 80 ad 17 40 bd cd ab 40 15 9d a1 40
       2.757895 2.3699646 5.3688645 5.050425
000160 be 05 83 40 cb 16 cc 3f 02 f1 82 3c 10 ed 6a 3e
       4.094451 1.5944456 0.015984062 0.22941995
000170 80 99 39 bf 1c a6 16 bf 55 67 ba 3f 80 65 d8 be
       -0.7249985 -0.5884721 1.4562784 -0.42264938
000180 c4 cb 57 c0 2c c1 01 c0 49 39 04 c0 26 ab 39 c0
       -3.3718119 -2.0274153 -2.0659964 -2.901071
000190 7c 3d 1a c0 dc 18 d1 bf 20 c3 67 bf 69 de 3b c0
       -2.4100027 -1.6335711 -0.9053211 -2.9354498
0001a0 25 9c 25 c0 e2 7a 2c c0 a7 4b 6d c0 28 b8 8b c0
       -2.5876553 -2.6950002 -3.7077425 -4.36623
0001b0 0f 56 81 c0 d6 2c 1d c0 b8 5f 3c c0 81 61 4b c0
       -4.041755 -2.4558616 -2.9433422 -3.1778262
0001c0 a2 40 80 c0 89 d6 35 c0 72 f5 61 c0 45 b8 52 c0
       -4.0078897 -2.8412192 -3.5306058 -3.292497
0001d0 fc 4d 63 c0 b5 58 92 c0 8f 75 ad c0 46 91 99 c0
       -3.5516348 -4.5733285 -5.4206004 -4.7989836
0001e0 78 59 95 c0 47 6c 90 c0 08 8d 82 c0 dd 35 7c c0
       -4.6671715 -4.5132174 -4.0797157 -3.9407876
0001f0 ce 94 6a c0 5e 49 97 c0 91 39 8f c0 03 85 a2 c0
       -3.6653323 -4.727706 -4.475777 -5.078737
000200 3f 0a 6d c0 f4 79 97 c0 87 ee d5 c0 7e 81 b5 c0
       -3.7037504 -4.733637 -6.685367 -5.672057
000210 90 df b2 c0 48 8a 69 c0 7b 54 6f c0 85 fa 59 c0
       -5.5897903 -3.649065 -3.7395313 -3.4059155
000220 28 aa 2e c0 01 61 6e c0 ad ef 9c c0 e7 69 14 c0
       -2.7291355 -3.7246706 -4.9042573 -2.3189638
000230 ae 5f 2f c0 98 85 f5 bf 6c 09 48 c0 25 45 e8 bf
       -2.7402148 -1.9181395 -3.125575 -1.8146101
000240 af a4 e3 bf e0 c5 b6 3f ac 8b 14 40 ba c4 da 3f
       -1.7784632 1.4279137 2.321025 1.7091286
000250 e4 b8 ae 3e ef 21 e8 3e e8 c8 2a 3f 8c b6 87 3f
       0.34125435 0.4533839 0.6671281 1.0602584
000260 e4 c7 3b 40 be f4 58 3f 26 92 8c bf d4 2c 69 be
       2.9340754 0.84748447 -1.0982101 -0.22771007
000270 d7 62 3c c0 61 39 2c c0 72 29 9e c0 2a 17 73 c0
       -2.9435327 -2.6910021 -4.9425592 -3.7982888
000280 92 00 01 c1 9d 93 d0 c0 06 6b f7 c0 6f 33 0e c1
       -8.062639 -6.518019 -7.7318144 -8.887557
000290 80 85 02 c1 af ea 1f c1 59 13 19 c1 48 b3 33 c1
       -8.157593 -9.994796 -9.567224 -11.23127
0002a0 d4 c8 32 c1 44 06 02 c1 60 e7 dc c0 62 19 fa c0
       -11.17403 -8.12653 -6.903244 -7.8155985
0002b0 c4 a5 f1 c0 48 66 3f c1 30 5a 6b c1 76 15 66 c1
       -7.551485 -11.962471 -14.709518 -14.3802395
0002c0 33 1e 8f c1 0a 91 8b c1 3e 3e 9c c1 18 ad 96 c1
       -17.889746 -17.44582 -19.530392 -18.834518
0002d0 30 9f 9c c1 e6 4c a2 c1 38 1c a8 c1 d2 1c 7b c1
       -19.577728 -20.287548 -21.013779 -15.694536
0002e0 e0 83 7d c1 21 01 09 c1 e6 55 a1 c0 34 be 51 3f
       -15.844696 -8.562776 -5.0417356 0.8193085
0002f0 50 87 89 40 04 83 de 40 14 34 f8 40 35 d1 03 41
       4.2977676 6.953493 7.756357 8.238576
000300 d6 c2 eb 40 8c 97 fb 3f c3 82 48 40 c1 35 e3 3e
       7.3675337 1.9655623 3.132981 0.44376948
000310 14 3c 18 bf 9c 95 13 bf 40 47 9c bf 56 60 87 bf
       -0.5946667 -0.5765016 -1.2209244 -1.0576274
000320 af ed 3c c0 0d 1d 1a c0 ac 12 bc c0 24 ce cc c0
       -2.952007 -2.408023 -5.8772793 -6.4001637
000330 1a eb bb c0 47 f4 bd c0 d0 ed bd c0 0e fd f4 c0
       -5.872449 -5.936069 -5.93528 -7.6558905
000340 ca 61 06 c1 13 19 07 c1 8b 2f e8 c0 9d c4 e6 c0
       -8.398874 -8.443622 -7.2558036 -7.2115006
000350 a6 2b b3 c0 92 6d be c0 16 be df c0 87 24 30 c1
       -5.599078 -5.9508753 -6.991954 -11.008918
000360 e8 ed 04 c1 a8 b9 c3 c0 eb 5b 01 c1 87 b0 8d c0
       -8.308083 -6.116413 -8.084941 -4.4277987
000370 1a 24 a5 c0 19 bb c6 c0 96 06 8f c0 64 b3 71 c0
       -5.160657 -6.210339 -4.469554 -3.7765741
000380 e3 c4 aa c0 6a eb 4f c0 9d b1 87 c0 ce 37 a4 c0
       -5.336534 -3.2487435 -4.2404313 -5.131812
000390 52 bd 8f c0 2d 96 89 c0 21 db 86 c0 7b f8 de bf
       -4.4918604 -4.299582 -4.214249 -1.741958
0003a0 3c 86 68 c0 ee 65 78 c0 ff 0f a4 c0 68 8a 79 c0
       -3.633193 -3.8812213 -5.1269526 -3.8990726
0003b0 12 ff 2b c0 b3 01 14 c0 af 93 0e c0 5c 00 31 bf
       -2.6874433 -2.3126037 -2.227764 -0.69141173
0003c0 c8 be f5 bf d7 39 3e bf fc 5b 4e c0 02 94 4c c0
       -1.9198847 -0.74307007 -3.2243643 -3.1965337
0003d0 87 29 8a c0 fc 02 6b c0 f6 42 83 c0 e6 39 c3 bf
       -4.3175693 -3.6720572 -4.101924 -1.5252044
0003e0 90 50 5e bf 4f 6b 82 bf 80 b5 87 3f 47 75 b3 3f
       -0.8684168 -1.0188998 1.0602264 1.4020165
0003f0 fe 41 77 3f b0 ca db 3e 89 33 87 3e 24 5b 7c 40
       0.9658507 0.42928076 0.26406506 3.9430628

mask f4 [1, 171]
000000 00 00 80 3f 00 00 80 3f 00 00 80 3f 00 00 80 3f
       1.0 1.0 1.0 1.0
000010 00 00 80 3f 00 00 80 3f 00 00 80 3f 00 00 80 3f
       1.0 1.0 1.0 1.0
000020 00 00 80 3f 00 00 80 3f 00 00 80 3f 00 00 80 3f
       1.0 1.0 1.0 1.0
000030 00 00 80 3f 00 00 80 3f 00 00 80 3f 00 00 80 3f
       1.0 1.0 1.0 1.0
000040 00 00 80 3f 00 00 80 3f 00 00 80 3f 00 00 80 3f
       1.0 1.0 1.0 1.0
000050 00 00 80 3f 00 00 80 3f 00 00 80 3f 00 00 80 3f
       1.0 1.0 1.0 1.0
000060 00 00 80 3f 00 00 80 3f 00 00 80 3f 00 00 80 3f
       1.0 1.0 1.0 1.0
000070 00 00 80 3f 00 00 80 3f 00 00 80 3f 00 00 80 3f
       1.0 1.0 1.0 1.0
000080 00 00 80 3f 00 00 80 3f 00 00 80 3f 00 00 80 3f
       1.0 1.0 1.0 1.0
000090 00 00 80 3f 00 00 80 3f 00 00 80 3f 00 00 80 3f
       1.0 1.0 1.0 1.0
0000a0 00 00 80 3f 00 00 80 3f 00 00 80 3f 00 00 80 3f
       1.0 1.0 1.0 1.0
0000b0 00 00 80 3f 00 00 80 3f 00 00 80 3f 00 00 80 3f
       1.0 1.0 1.0 1.0
0000c0 00 00 80 3f 00 00 80 3f 00 00 80 3f 00 00 80 3f
       1.0 1.0 1.0 1.0
0000d0 00 00 80 3f 00 00 80 3f 00 00 80 3f 00 00 80 3f
       1.0 1.0 1.0 1.0
0000e0 00 00 80 3f 00 00 80 3f 00 00 80 3f 00 00 80 3f
       1.0 1.0 1.0 1.0
0000f0 00 00 80 3f 00 00 80 3f 00 00 80 3f 00 00 80 3f
       1.0 1.0 1.0 1.0
000100 00 00 80 3f 00 00 80 3f 00 00 80 3f 00 00 80 3f
       1.0 1.0 1.0 1.0
000110 00 00 80 3f 00 00 80 3f 00 00 80 3f 00 00 80 3f
       1.0 1.0 1.0 1.0
000120 00 00 80 3f 00 00 80 3f 00 00 80 3f 00 00 80 3f
       1.0 1.0 1.0 1.0
000130 00 00 80 3f 00 00 80 3f 00 00 80 3f 00 00 80 3f
       1.0 1.0 1.0 1.0
000140 00 00 80 3f 00 00 80 3f 00 00 80 3f 00 00 80 3f
       1.0 1.0 1.0 1.0
000150 00 00 80 3f 00 00 80 3f 00 00 80 3f 00 00 80 3f
       1.0 1.0 1.0 1.0
000160 00 00 80 3f 00 00 80 3f 00 00 80 3f 00 00 80 3f
       1.0 1.0 1.0 1.0
000170 00 00 80 3f 00 00 80 3f 00 00 80 3f 00 00 80 3f
       1.0 1.0 1.0 1.0
000180 00 00 80 3f 00 00 80 3f 00 00 80 3f 00 00 80 3f
       1.0 1.0 1.0 1.0
000190 00 00 80 3f 00 00 80 3f 00 00 80 3f 00 00 80 3f
       1.0 1.0 1.0 1.0
0001a0 00 00 80 3f 00 00 80 3f 00 00 80 3f 00 00 80 3f
       1.0 1.0 1.0 1.0
0001b0 00 00 80 3f 00 00 80 3f 00 00 80 3f 00 00 80 3f
       1.0 1.0 1.0 1.0
0001c0 00 00 80 3f 00 00 80 3f 00 00 80 3f 00 00 80 3f
       1.0 1.0 1.0 1.0
0001d0 00 00 80 3f 00 00 80 3f 00 00 80 3f 00 00 80 3f
       1.0 1.0 1.0 1.0
0001e0 00 00 80 3f 00 00 80 3f 00 00 80 3f 00 00 80 3f
       1.0 1.0 1.0 1.0
0001f0 00 00 80 3f 00 00 80 3f 00 00 80 3f 00 00 80 3f
       1.0 1.0 1.0 1.0
000200 00 00 80 3f 00 00 80 3f 00 00 80 3f 00 00 80 3f
       1.0 1.0 1.0 1.0
000210 00 00 80 3f 00 00 80 3f 00 00 80 3f 00 00 80 3f
       1.0 1.0 1.0 1.0
000220 00 00 80 3f 00 00 80 3f 00 00 80 3f 00 00 80 3f
       1.0 1.0 1.0 1.0
000230 00 00 80 3f 00 00 80 3f 00 00 80 3f 00 00 80 3f
       1.0 1.0 1.0 1.0
000240 00 00 80 3f 00 00 80 3f 00 00 80 3f 00 00 80 3f
       1.0 1.0 1.0 1.0
000250 00 00 80 3f 00 00 80 3f 00 00 80 3f 00 00 80 3f
       1.0 1.0 1.0 1.0
000260 00 00 80 3f 00 00 80 3f 00 00 80 3f 00 00 80 3f
       1.0 1.0 1.0 1.0
000270 00 00 80 3f 00 00 80 3f 00 00 80 3f 00 00 80 3f
       1.0 1.0 1.0 1.0
000280 00 00 80 3f 00 00 80 3f 00 00 80 3f 00 00 80 3f
       1.0 1.0 1.0 1.0
000290 00 00 80 3f 00 00 80 3f 00 00 80 3f 00 00 80 3f
       1.0 1.0 1.0 1.0
0002a0 00 00 80 3f 00 00 80 3f 00 00 80 3f
       1.0 1.0 1.0

mu f4 [1, 80, 171]
000000 4a 95 6c bf 4a 95 6c bf 10 f9 b2 3e 10 f9 b2 3e
       -0.924153 -0.924153 0.34955645 0.34955645
000010 3e f9 17 bf 3e f9 17 bf 3e db ab be 3e db ab be
       -0.5936469 -0.5936469 -0.33565706 -0.33565706
000020 ea 40 02 3e ea 40 02 3e aa 6e 37 3f aa 6e 37 3f
       0.12720075 0.12720075 0.71653235 0.71653235
000030 10 2f 3a 3f 10 2f 3a 3f 9b 2b ad 3e 9b 2b ad 3e
       0.7272806 0.7272806 0.3382233 0.3382233
000040 01 b7 44 be 01 b7 44 be d8 6e 69 be d8 6e 69 be
       -0.19210435 -0.19210435 -0.2279619 -0.2279619
000050 81 9e de be 81 9e de be 62 93 68 3f 62 93 68 3f
       -0.43480304 -0.43480304 0.9084989 0.9084989
000060 60 2b 6c 3e 60 2b 6c 3e 5c 24 19 3f 5c 24 19 3f
       0.23063421 0.23063421 0.59821105 0.59821105
000070 35 53 33 3f 35 53 33 3f 30 c0 31 3d 30 c0 31 3d
       0.7004884 0.7004884 0.043396175 0.043396175
000080 7e 7c 16 3f 7e 7c 16 3f 10 dc 68 bd 10 dc 68 bd
       0.5878371 0.5878371 -0.056850493 -0.056850493
000090 8a 47 71 bf 8a 47 71 bf 2b c9 92 3e 2b c9 92 3e
       -0.94249785 -0.94249785 0.28669104 0.28669104
0000a0 5a ee 16 bf 5a ee 16 bf 80 63 9d 3a 80 63 9d 3a
       -0.58957446 -0.58957446 0.0012007803 0.0012007803
0000b0 00 80 ca 3d 00 80 ca 3d f7 49 98 be f7 49 98 be
       0.09887695 0.09887695 -0.2974393 -0.2974393
0000c0 1a f5 5a 3f 1a f5 5a 3f 7c d0 3d 3e 7c d0 3d 3e
       0.85530245 0.85530245 0.18536562 0.18536562
0000d0 50 73 88 bd 50 73 88 bd ca b1 5c 3d ca b1 5c 3d
       -0.06662619 -0.06662619 0.05388049 0.05388049
0000e0 e6 d8 0e 3f e6 d8 0e 3f bd 6b 85 be bd 6b 85 be
       0.5579971 0.5579971 -0.2605876 -0.2605876
0000f0 ae 4d 06 3e ae 4d 06 3e c0 68 11 3e c0 68 11 3e
       0.1311557 0.1311557 0.14200115 0.14200115
000100 7f bd 93 3f 7f bd 93 3f 76 59 49 bf 76 59 49 bf
       1.1542205 1.1542205 -0.7865213 -0.7865213
000110 14 32 0f 3f 14 32 0f 3f 6b 7c 59 bf 6b 7c 59 bf
       0.5593579 0.5593579 -0.8495547 -0.8495547
000120 60 d2 81 bf 60 d2 81 bf 45 af d3 3f 45 af d3 3f
       -1.0142326 -1.0142326 1.6537863 1.6537863
000130 70 d7 d2 3d 70 d7 d2 3d a6 84 53 3f a6 84 53 3f
       0.10294998 0.10294998 0.8262428 0.8262428
000140 94 5d 09 bf 94 5d 09 bf 86 03 22 3f 86 03 22 3f
       -0.53658414 -0.53658414 0.63286626 0.63286626
000150 2f 88 5f 3f 2f 88 5f 3f 3a 01 5c be 3a 01 5c be
       0.87317175 0.87317175 -0.21484843 -0.21484843
000160 f0 66 02 3f f0 66 02 3f 6e 55 66 3e 6e 55 66 3e
       0.5093832 0.5093832 0.22493526 0.22493526
000170 3d f4 91 3e 3d f4 91 3e ea 70 3a 3f ea 70 3a 3f
       0.28506652 0.28506652 0.72828543 0.72828543
000180 c1 0f a5 bf c1 0f a5 bf 5d 92 a8 3f 5d 92 a8 3f
       -1.2895433 -1.2895433 1.3169667 1.3169667
000190 5a 63 46 bf 5a 63 46 bf 03 40 e3 3e 03 40 e3 3e
       -0.7749535 -0.7749535 0.44384775 0.44384775
0001a0 c0 7c b4 3f c0 7c b4 3f e3 b4 95 3f e3 b4 95 3f
       1.4100571 1.4100571 1.1695827 1.1695827
0001b0 08 de 5c 3f 08 de 5c 3f 58 87 99 bf 58 87 99 bf
       0.8627629 0.8627629 -1.1994429 -1.1994429
0001c0 ea 76 15 bf ea 76 15 bf cd cd 17 bf cd cd 17 bf
       -0.58384573 -0.58384573 -0.592984 -0.592984
0001d0 dd b6 18 bf dd b6 18 bf b8 b5 76 bd b8 b5 76 bd
       -0.5965403 -0.5965403 -0.060231894 -0.060231894
0001e0 30 48 f0 3c 30 48 f0 3c 6b 78 1b be 6b 78 1b be
       0.029331297 0.029331297 -0.15182655 -0.15182655
0001f0 de 05 d4 be de 05 d4 be 9d c1 cc 3e 9d c1 cc 3e
       -0.41410726 -0.41410726 0.39991465 0.39991465
000200 46 39 c1 3e 46 39 c1 3e 48 8b f5 3e 48 8b f5 3e
       0.3773901 0.3773901 0.47957826 0.47957826
000210 20 44 83 bd 20 44 83 bd 59 c0 a3 be 59 c0 a3 be
       -0.06409478 -0.06409478 -0.31982687 -0.31982687
000220 82 b2 36 bf 82 b2 36 bf c0 b3 33 bf c0 b3 33 bf
       -0.7136613 -0.7136613 -0.7019615 -0.7019615
000230 11 4b f7 3e 11 4b f7 3e be bf 1c 3f be bf 1c 3f
       0.4829946 0.4829946 0.61230075 0.61230075
000240 e5 82 93 3e e5 82 93 3e 84 01 b4 be 84 01 b4 be
       0.28810802 0.28810802 -0.35157406 -0.35157406
000250 24 f3 4a bf 24 f3 4a bf 14 30 c8 be 14 30 c8 be
       -0.79277253 -0.79277253 -0.3909918 -0.3909918
000260 94 d2 0d 3f 94 d2 0d 3f 28 3d 8f be 28 3d 8f be
       0.5539944 0.5539944 -0.27976346 -0.27976346
000270 6c 1d 98 3e 6c 1d 98 3e 56 78 60 be 56 78 60 be
       0.29709947 0.29709947 -0.21920905 -0.21920905
000280 c0 de b5 be c0 de b5 be ef 4c e5 be ef 4c e5 be
       -0.35521507 -0.35521507 -0.44785258 -0.44785258
000290 50 13 f5 be 50 13 f5 be 50 13 f5 be 50 13 f5 be
       -0.47866297 -0.47866297 -0.47866297 -0.47866297
0002a0 74 1f f2 bd 74 1f f2 bd 80 74 a2 be a8 95 c5 bd
       -0.118224055 -0.118224055 -0.31729507 -0.09647685
0002b0 a8 95 c5 bd 7c 33 84 be 7c 33 84 be 86 d1 92 be
       -0.09647685 -0.2582053 -0.2582053 -0.2867548
0002c0 86 d1 92 be 76 38 2b be 76 38 2b be 20 35 71 bc
       -0.2867548 -0.16720757 -0.16720757 -0.014722139
0002d0 20 35 71 bc 76 94 5a 3e 76 94 5a 3e 96 a1 ae be
       -0.014722139 0.21345696 0.21345696 -0.34107655
0002e0 96 a1 ae be e4 ce 58 bf e4 ce 58 bf 53 31 08 bf
       -0.34107655 -0.8469069 -0.8469069 -0.5320026
0002f0 53 31 08 bf 21 fe 00 bf 21 fe 00 bf 7a f5 8f be
       -0.5320026 -0.5038777 -0.5038777 -0.2811697
000300 7a f5 8f be 2c e0 8b bd 2c e0 8b bd 28 27 19 3e
       -0.2811697 -0.06829867 -0.06829867 0.14956343
000310 28 27 19 3e 78 e3 53 be 78 e3 53 be 2a a4 1a bf
       0.14956343 -0.20692241 -0.20692241 -0.60406744
000320 2a a4 1a bf 6a db d4 be 6a db d4 be 9a 6b 87 be
       -0.60406744 -0.4157365 -0.4157365 -0.2644928
000330 9a 6b 87 be 20 2a f5 bd 20 2a f5 bd c5 90 9e be
       -0.2644928 -0.11970925 -0.11970925 -0.30969825
000340 c5 90 9e be e7 80 dd 3e e7 80 dd 3e de 38 1e 3e
       -0.30969825 0.43262407 0.43262407 0.1545138
000350 de 38 1e 3e d8 62 70 3d d8 62 70 3d a4 d7 8c bd
       0.1545138 0.058688015 0.058688015 -0.06877068
000360 a4 d7 8c bd a0 8c ad be a0 8c ad be 7a b2 83 be
       -0.06877068 -0.3389635 -0.3389635 -0.25722104
000370 7a b2 83 be 2c d3 ad be 2c d3 ad be c0 07 2b 3d
       -0.25722104 -0.33950174 -0.33950174 0.041755438
000380 c0 07 2b 3d df 4a 27 be df 4a 27 be e0 cb bb bc
       0.041755438 -0.16337155 -0.16337155 -0.022924364
000390 e0 cb bb bc f8 3b ab bd f8 3b ab bd 70 dc 14 be
       -0.022924364 -0.083610475 -0.083610475 -0.14537215
0003a0 70 dc 14 be 30 5d 7a bd 30 5d 7a bd 55 89 62 be
       -0.14537215 -0.061124027 -0.061124027 -0.221227
0003b0 55 89 62 be fe 32 dd be fe 32 dd be c0 4d a2 be
       -0.221227 -0.43202966 -0.43202966 -0.31699944
0003c0 c0 4d a2 be 36 a1 98 be 36 a1 98 be 9c 37 48 bf
       -0.31699944 -0.29810494 -0.29810494 -0.78209853
0003d0 9c 37 48 bf fa d8 9f be fa d8 9f be 34 e5 fc bd
       -0.78209853 -0.31220227 -0.31220227 -0.123484045
0003e0 34 e5 fc bd 6f ef 6e 3e 6f ef 6e 3e 2e 03 80 3e
       -0.123484045 0.23333524 0.23333524 0.25002426
0003f0 2e 03 80 3e d8 a0 41 3d d8 a0 41 3d a0 f8 22 bc
       0.25002426 0.047272533 0.047272533 -0.009946972

spks f4 [1, 80]
000000 54 14 73 3e d7 46 f6 bd 2a 68 11 bf 63 f6 e8 3d
       0.23738223 -0.120252304 -0.56799567 0.113751195
000010 15 9f 78 be cf 48 08 bd 13 41 1f 3d 86 c7 21 3e
       -0.24279435 -0.03327256 0.03888042 0.15798768
000020 78 88 74 bc d8 01 bd 3c 3c 2f b4 3d 66 fb ee bd
       -0.014925115 0.023072168 0.08798072 -0.11669044
000030 10 90 8e bd c1 bc 8d 3d 48 d0 61 be 90 8c e0 bd
       -0.069610715 0.069207676 -0.22052109 -0.1096431
000040 9c 15 7e 3e 92 8b 22 3d 07 2b c8 bd 26 7a e1 3c
       0.24812931 0.039683886 -0.09773832 0.027524065
000050 56 bc 60 be 2d d9 cc 3d 76 28 73 be 82 16 ee 3d
       -0.21946844 0.100023605 -0.23745903 0.11625387
000060 01 5b ed 3d 71 65 96 bd 26 46 26 bd 5d 73 0a bd
       0.11589623 -0.07343567 -0.040594243 -0.033801425
000070 3b 61 93 3e 4a ad 00 be c8 c5 6b 3d 00 3a 07 be
       0.28785118 -0.12566105 0.057561666 -0.13205719
000080 bc 4b f5 3d d5 3b e7 3d 9d a2 3a 3d 9d f7 9c be
       0.11977336 0.11290709 0.045565236 -0.30657664
000090 ff e7 9d 3d 18 52 2e 3e 92 5a 2e 3d c6 3e 7a bd
       0.07710265 0.17023504 0.042566843 -0.06109502
0000a0 46 0d 57 bd 92 d1 4e 3d 52 5a 91 bc 5e 5d 2e 3e
       -0.052502893 0.05049283 -0.017743263 0.17027804
0000b0 fa ab c1 3d 64 61 74 bd 50 e7 8f 3d d8 9b bc 3c
       0.0945663 -0.05966319 0.07026541 0.02302353
0000c0 68 9d 29 3d 8d 6f c8 3d ec a4 bc bd a6 a0 61 3e
       0.04140988 0.097869016 -0.09211144 0.22033939
0000d0 50 96 12 3e 62 9d 71 3e c1 6b b3 bd d6 09 33 3d
       0.14315152 0.23595193 -0.08760787 0.043710552
0000e0 de 3f 94 3e d9 51 fb 3d 1a 8b b6 bd 51 bc bf bd
       0.28954977 0.122714706 -0.0891325 -0.093620904
0000f0 a0 72 43 3d 7a ab 0d be 3c d0 d8 bd b5 51 84 bd
       0.047716737 -0.13834944 -0.105865926 -0.06460897
000100 23 93 22 be 5f 78 60 3e a4 6e 26 bc d3 aa 82 bd
       -0.1587644 0.21920918 -0.010158215 -0.063802384
000110 f2 17 f7 3d ec 9d b4 3d a8 49 14 3e 49 c7 6a 3e
       0.12065114 0.08819184 0.14481223 0.22927584
000120 6a 3a b6 bd 86 70 84 be d8 1c 85 3c 14 d3 11 be
       -0.0889786 -0.258671 0.016249105 -0.14240676
000130 05 e5 2c 3d e8 19 ab bd db fe 11 be 57 9e bf bd
       0.042210598 -0.083545506 -0.14257376 -0.09356373

x_init f4 [1, 80, 171]
000000 29 a5 f6 3f 53 5f be 3f 67 95 66 3f db c0 06 c0
       1.9269153 1.4872841 0.9007172 -2.105521
000010 d5 ac 2d 3f 91 05 9e bf 86 67 30 bd ba 65 cd bf
       0.67841846 -1.2345449 -0.043067478 -1.604667
000020 f0 8b 40 bf 5b 09 d3 3f f6 f2 c8 be 66 a9 b3 bf
       -0.7521353 1.648723 -0.39247864 -1.4036071
000030 6e 56 3a bf d1 36 0f bf a0 d2 44 bf 9f 2f 43 3f
       -0.7278813 -0.5594302 -0.7688389 0.7624454
000040 71 37 d2 3f 85 6d 23 be e4 aa fe be d8 11 e1 3e
       1.6423169 -0.15959747 -0.49739754 0.43958926
000050 e2 14 42 bf 50 06 8a 3f 44 01 4d 3f 93 1e d7 3f
       -0.75813115 1.0783176 0.80080056 1.6806206
000060 59 ba a3 3f 2f f1 a5 3f 88 47 1c 3f b0 d8 aa 3f
       1.2791244 1.2964228 0.6104665 1.3347378
000070 ed 2e 6d be 00 0c 2b 3d 7a ce 80 be b0 1f 5c 3f
       -0.23162432 0.04175949 -0.2515753 0.8598585
000080 fd 3c b1 bf 55 09 5f bf 09 ba 64 be 80 d2 db 3f
       -1.3846737 -0.87123615 -0.22336592 1.7173615
000090 48 44 a3 3e 8d 5a d9 be 74 87 9c 3e b2 4b 46 bf
       0.31888032 -0.42451897 0.30572093 -0.7745925
0000a0 89 5e c7 bf 02 e2 7e 3f a5 39 61 bf 72 e4 19 bf
       -1.5575725 0.9956361 -0.87978584 -0.60114205
0000b0 63 17 a3 bf b6 db 07 40 1d 09 9e bf d9 cf f9 be
       -1.2741512 2.122785 -1.2346531 -0.48791388
0000c0 4e f0 69 bf af 7b 28 bf fb ca 9f 3d 67 9b 06 3f
       -0.913823 -0.65813726 0.07802387 0.52580875
0000d0 0d da f9 be c8 7e 98 3f ce 62 50 bf 06 6a 3c bf
       -0.48799172 1.191369 -0.81400764 -0.7359928
0000e0 a0 9d b3 bf 95 78 13 3d 5f 00 82 bd 19 f5 2c 3f
       -1.4032478 0.036003668 -0.06347727 0.6756149
0000f0 fb 4e c8 bd a8 1b ec 3f ec 9e 97 bf 25 18 b1 3f
       -0.09780689 1.844594 -1.1845374 1.3835493
000100 25 fa b8 3f da 3d 5b 3f f4 f4 0d 40 2d ee 05 3f
       1.4451338 0.85641253 2.2180758 0.5231655
000110 ac 7b b1 3e 41 11 4a be c5 fc 86 bf 5c 95 a3 3f
       0.34664667 -0.19733144 -1.0545889 1.2779956
000120 9c 52 30 be 00 17 06 3f 48 ec 67 3d 7d 43 da 3e
       -0.17219013 0.52378845 0.05662182 0.42629614
000130 88 33 13 3f 08 48 24 bf a2 35 0d c0 a1 34 40 bf
       0.57500505 -0.6417241 -2.2063985 -0.75080305
000140 4d 10 32 3c a3 6f ad be 63 9b ab bf d8 da 15 bf
       0.010868144 -0.33874235 -1.3406795 -0.58537054
000150 a0 43 09 3f ab 4d 06 3f e5 12 92 3f 3c 88 53 3d
       0.5361881 0.5246226 1.1412016 0.051643595
000160 a3 73 3e 3f 3b 92 f6 be e8 54 86 bf 1d 99 1a 3f
       0.743952 -0.4815844 -1.0494661 0.6038988
000170 2a 74 dc bf a9 e8 53 bf 8c d7 aa 3f 76 92 f7 3e
       -1.722295 -0.82776886 1.334703 0.48353928
000180 60 9c 20 c0 46 db f9 3e af da 48 3f 81 ad ea 3c
       -2.5095444 0.48800105 0.78458685 0.028647186
000190 8a 08 24 3f b4 4f 15 3f 0e 91 88 3f 81 7a e6 be
       0.6407553 0.5832474 1.0669267 -0.45015338
0001a0 c2 b6 3d be ce b4 40 3f 6a 3c cf 3e ca bf 36 3e
       -0.18526748 0.75275886 0.4047578 0.17846599
0001b0 38 a2 87 3e 2e f7 a2 3f 49 d1 ab ba f4 71 9b be
       0.2649095 1.2731683 -0.0013108636 -0.30360377
0001c0 ee 7f ba bf 23 95 d1 bd 18 62 19 bf bd 40 f4 3e
       -1.4570291 -0.10233524 -0.59915304 0.4770564
0001d0 c0 e6 39 3f d4 ad ba 3d 8e 33 c7 be 89 25 07 3f
       0.7261772 0.09115186 -0.3890652 0.5279165
0001e0 c1 d6 4f bc cc 9d 76 3e 5a b7 07 3e 46 a5 43 3f
       -0.012685479 0.24083632 0.13253537 0.7642406
0001f0 47 29 8c 3f 30 06 ae 3e ca 4f 38 3f 05 a4 d2 3e
       1.0950097 0.33989096 0.7199675 0.41140762
000200 45 30 f7 3f c1 84 81 3f 2b dc b7 bf 3f 9f 90 bf
       1.9311606 1.0118638 -1.4364065 -1.1298598
000210 a3 4c 0b be 1a 55 d1 3f 17 9d 27 3f 09 75 13 3f
       -0.13603453 1.6354096 0.65474075 0.57600456
000220 ef 1c 92 3f bd 14 98 3c 9f 24 e7 bf 4d e9 6c 3f
       1.141508 0.018564576 -1.8058051 0.9254349
000230 23 2d c0 be 35 3c 84 3f 5b c8 2f bf 38 06 23 3f
       -0.37534437 1.0330874 -0.68665093 0.63681364
000240 28 01 79 bf 7d 5d 75 3f f6 41 cf 3f 95 ad b9 3f
       -0.9726739 0.95845777 1.6192005 1.4506098
000250 7c f9 89 3e cd 6c 57 be f6 98 3b bf 1a 9a d5 3d
       0.26948154 -0.21037598 -0.73280275 0.10429783
000260 95 8f b2 3e 40 b4 77 3f b7 6e ee be ff 69 cd 3f
       0.3487517 0.96759415 -0.46568844 1.6047972
000270 4a ba 1e c0 4b c8 d5 be a1 04 99 bf 50 f5 4f 3f
       -2.4801202 -0.41754374 -1.1954538 0.8123369
000280 54 45 f3 bf f7 0f 6a 3e f3 a5 cb 3c 64 20 b1 be
       -1.9005532 0.22857653 0.024859404 -0.34595025
000290 c0 db 92 3e 7d 18 3b bf 15 04 33 3e e0 05 8c bf
       0.2868328 -0.7308424 0.17482026 -1.0939293
0002a0 97 13 cd bf ba 2b ad 3f 4e f8 a4 3f c7 33 56 3d
       -1.6021603 1.3528969 1.2888277 0.052295472
0002b0 32 ff c5 bf 7d b7 41 3f 72 88 46 3f c2 b2 01 40
       -1.5468504 0.75670606 0.7755195 2.0265355
0002c0 7d b5 12 3d 39 f7 f6 3d fa 3f 4e bf 05 8f 54 be
       0.035817612 0.12058873 -0.8056637 -0.20757683
0002d0 22 94 6e bf c8 a4 cb bf a7 67 91 bf f5 c8 05 bf
       -0.9319478 -1.5909662 -1.1359757 -0.5225976
0002e0 54 ce 04 bf d3 29 c0 bf 9b 9c f6 bf 6f eb 02 3e
       -0.5187733 -1.5012764 -1.9266542 0.12785123
0002f0 d3 ee 82 3f 97 48 0e bf 38 4b 34 3f 6f ba 35 3f
       1.0229133 -0.55579513 0.70427275 0.709876
000300 29 1f e3 3f c4 ea 6b bf 1e 63 76 3f 40 8d ac be
       1.7743884 -0.921551 0.9624499 -0.33701515
000310 55 71 96 bf 42 53 b7 3e 11 21 f5 3e 0b 46 ad 3f
       -1.1753336 0.35805708 0.4787679 1.3537
000320 01 ac 06 3f a1 2b 07 40 57 50 05 bf f4 97 6e bf
       0.5260621 2.112038 -0.52075714 -0.9320061
000330 ef 9a 3d 3e e5 ca 88 3f 85 3c a7 3f 6e 6f eb 3e
       0.18516134 1.0686918 1.3065344 0.45983452
000340 63 8b 50 bf f8 b7 82 bf 9f 66 fd be ce 9d 17 bf
       -0.8146269 -1.0212393 -0.49492356 -0.59225166
000350 00 05 1e 3e 39 ac e1 3e f0 d9 17 be 60 61 14 c0
       0.15431595 0.44076708 -0.1482923 -2.3184433
000360 0b c6 cb be 60 4d 8a 3f 5d f3 e3 bf a2 07 c1 3f
       -0.39799532 1.0804863 -1.7808644 1.5080454
000370 6b 6d 9e 3e 41 14 00 bf fc 7a 84 3f 5b 46 d8 3f
       0.30942854 -0.50030905 1.0350032 1.6896471
000380 1d 9f 93 bb 74 59 d5 3f 40 9d 1d 3e 5f b6 87 bf
       -0.0045050518 1.6667924 0.15392017 -1.060253
000390 b0 99 12 bf b8 25 ab 3d 65 c0 cc 3e 57 9e fe 3f
       -0.5726576 0.08356804 0.39990535 1.9892071
0003a0 30 6e 93 bd cf f5 67 bf 1a 1e 03 c0 07 60 8a bf
       -0.07198751 -0.9060945 -2.0487123 -1.0810555
0003b0 47 5e 90 3c f2 34 a0 3d 4a cb 45 3e b7 c0 d1 3e
       0.01762308 0.078225985 0.1931583 0.40967342
0003c0 7c db 6d bf e4 68 8d 3e bb f3 09 bf 97 d7 ec 3e
       -0.9291303 0.27619088 -0.5388753 0.46258232
0003d0 20 34 5f bf 53 27 de bc a1 dc b4 be aa 5f bb 3f
       -0.8718891 -0.02711836 -0.35324576 1.4638569
0003e0 12 b2 a0 3f 58 07 37 bf 75 9a 5a 3f 64 53 03 3f
       1.2554343 -0.7149558 0.8539193 0.5129912
0003f0 d0 2b 0a 3f f0 c4 10 3f 91 7b 01 3f e4 ca 63 3e
       0.539731 0.565505 0.5057917 0.22245365
