rust/debug_artifacts.safetensors (safetensors, 378064 bytes, 8 tensors)

python_f0 f4 [1, 78]
000000 e8 c0 13 3d 7a 41 69 3e b4 83 a6 3d fa 2d 09 3e
       0.03607264 0.22778884 0.08130589 0.13396445
000010 7c 5a 74 3f e4 a6 4c 3f 90 46 47 3f c8 18 70 3f
       0.9545057 0.79942155 0.77842045 0.93787813
000020 be 63 5c 3f 80 fd 4d 3f 10 7b 68 3f f7 42 86 3f
       0.86089694 0.80464935 0.9081278 1.0489186
000030 e8 b2 b3 3f 79 de c5 3f bc de 9e 3f 26 ff 78 3f
       1.4038973 1.5458518 1.2411723 0.97264326
000040 88 a9 53 3f 56 7e 46 3f 08 72 38 3f 90 36 48 3f
       0.8268056 0.77536523 0.72049 0.78208256
000050 fa 0d 80 3f 48 9e 8f 40 8b be c4 42 17 a7 04 43
       1.0004265 4.4880714 98.372154 132.6527
000060 db 2c 0e 43 fc 79 11 43 bc 64 15 43 1f c5 11 43
       142.17522 145.4765 149.3935 145.77
000070 00 e1 0b 43 a6 1c 07 43 fa 6b 03 43 e6 3a ff 42
       139.8789 135.11191 131.42178 127.615036
000080 52 5f 04 43 1a 30 08 43 19 d5 0b 43 76 9d 0c 43
       132.37234 136.1879 139.83241 140.61508
000090 49 5f 06 43 f5 de 01 43 ca c5 f7 42 c1 f9 ee 42
       134.37221 129.87093 123.88631 119.4878
0000a0 ad 5d ea 42 80 7a db 42 9d 33 d2 42 6d 40 c7 42
       117.18296 109.73926 105.10081 99.62583
0000b0 be 11 be 42 82 26 b9 42 bc c4 b8 42 81 0c ba 42
       95.03465 92.57521 92.38425 93.02442
0000c0 df 20 b9 42 68 01 b6 42 b0 8f b1 42 da e3 ac 42
       92.5642 91.00275 88.78064 86.44502
0000d0 7c d8 a7 42 73 49 a4 42 3f 75 a2 42 47 89 9c 42
       83.92282 82.143456 81.229 78.26812
0000e0 4a ec 9b 42 09 cb 9a 42 2e 76 37 3f 0b 8d ea 3e
       77.9615 77.39655 0.716647 0.45810732
0000f0 5c 85 ee 3e aa ee 0c 3f 9d 21 fa 3e 7f 88 bf 3e
       0.4658612 0.5505167 0.4885377 0.37408826
000100 98 a2 1c 3f 52 e2 99 3e db cd 4b 42 f9 c1 8a 42
       0.611856 0.3005548 50.95103 69.37885
000110 c5 e1 ba 3f 93 d3 1e 3e 9c 10 8f 3d 1f 12 0d 3f
       1.4600149 0.15510397 0.0698559 0.55105776
000120 d0 96 31 3f e4 44 2c 3f 34 e7 14 3f 6a 68 28 3f
       0.69370747 0.6729262 0.5816529 0.65784323
000130 b0 f8 36 3f d2 b3 01 3f
       0.71473217 0.5066501

python_flow_output f4 [1, 80, 78]
000000 68 ce 09 c1 2d a0 0e c1 5a 0e 13 c1 7a 9e 15 c1
       -8.612892 -8.914105 -9.191004 -9.351191
000010 4b 4a 16 c1 86 98 10 c1 54 21 0c c1 08 71 07 c1
       -9.393138 -9.037237 -8.758137 -8.4650955
000020 c8 91 06 c1 22 8b 07 c1 6d 16 08 c1 55 c4 08 c1
       -8.410591 -8.471468 -8.505475 -8.547933
000030 e9 28 06 c1 f4 6a cc c0 90 b8 c4 c0 4a d0 c3 c0
       -8.384988 -6.388056 -6.1475296 -6.119176
000040 35 44 d6 c0 85 c4 00 c1 35 78 00 c1 9e 02 07 c1
       -6.695826 -8.047978 -8.029347 -8.438139
000050 ac a0 a6 c0 62 79 74 c0 d1 77 84 c0 df c0 75 c0
       -5.2071133 -3.8199086 -4.139626 -3.839897
000060 a1 bd 76 c0 20 b8 87 c0 bd 62 8f c0 5f 1e 78 c0
       -3.855324 -4.241226 -4.480803 -3.8768537
000070 34 24 73 c0 ed 0e 94 c0 a7 b8 b1 c0 cf 24 ab c0
       -3.7990847 -4.626822 -5.5537906 -5.348243
000080 a2 54 8a c0 d0 8b 84 c0 bc 6b 74 c0 a1 ea 85 c0
       -4.322831 -4.142067 -3.8190756 -4.184891
000090 eb 18 81 c0 33 89 7f c0 da b5 79 c0 3e 0c 7b c0
       -4.0342917 -3.992749 -3.9017243 -3.9226222
0000a0 96 1b 83 c0 81 8e 74 c0 d7 50 7a c0 2d 41 69 c0
       -4.0971174 -3.8211977 -3.911184 -3.644603
0000b0 01 d1 59 c0 2c 51 48 c0 8b 86 47 c0 06 fb 47 c0
       -3.4033816 -3.1299543 -3.1175869 -3.1246963
0000c0 0a 0e 48 c0 eb 54 3f c0 82 ea 38 c0 c9 af 36 c0
       -3.1258569 -2.989558 -2.8893132 -2.854479
0000d0 27 27 37 c0 b4 20 2d c0 18 29 2d c0 10 46 3a c0
       -2.8617647 -2.705121 -2.7056332 -2.9105263
0000e0 09 5c 45 c0 ab 85 46 c0 f3 18 4d c0 84 79 4b c0
       -3.0837424 -3.1019084 -3.2046478 -3.1792917
0000f0 cd a4 5e c0 56 be 80 c0 a2 0e 90 c0 61 ab ac c0
       -3.4788086 -4.0232344 -4.501786 -5.3959203
000100 7e cf b8 c0 f6 ce bd c0 97 92 d7 c0 d8 2e e6 c0
       -5.7753286 -5.931514 -6.7366443 -7.193218
000110 7d 6c eb c0 70 38 e9 c0 72 b3 e7 c0 fa fa e7 c0
       -7.356993 -7.2881393 -7.240655 -7.249387
000120 5c e4 ed c0 03 ff fc c0 f2 ac dd c0 7f 37 c7 c0
       -7.434126 -7.9061294 -6.9273615 -6.2255244
000130 ee 87 a9 c0 e4 29 88 c0 0a 5c 06 c1 bf 91 0b c1
       -5.297843 -4.2551136 -8.39747 -8.723083
000140 c3 8e 0f c1 09 fc 18 c1 66 5a 16 c1 aa ad 05 c1
       -8.972354 -9.561532 -9.39707 -8.354898
000150 7f 2c fc c0 bc 0f fb c0 34 06 ff c0 fc 2f 02 c1
       -7.8804317 -7.8456707 -7.969507 -8.136715
000160 56 a2 fe c0 98 44 f7 c0 b8 a1 ec c0 ec 08 af c0
       -7.9573164 -7.7271233 -7.394741 -5.469839
000170 a5 6a a4 c0 f4 c6 a4 c0 53 82 b7 c0 b2 5a d9 c0
       -5.138018 -5.1492863 -5.7346587 -6.792321
000180 e7 1c e5 c0 70 b7 f7 c0 1d a1 91 c0 22 ef 6e c0
       -7.159778 -7.7411423 -4.550917 -3.7333455
000190 da 7c f1 bf c4 6f dc bf cc d3 18 c0 ca dc 39 c0
       -1.8866227 -1.7221608 -2.387927 -2.904101
0001a0 01 52 5a c0 70 93 42 c0 32 c6 0d c0 1e 34 ed bf
       -3.4112551 -3.0402489 -2.215222 -1.853153
0001b0 28 4d e8 bf 28 fb eb bf cd f6 1f c0 10 85 2d c0
       -1.8148546 -1.8436022 -2.4994385 -2.7112465
0001c0 32 d3 45 c0 dc 32 4b c0 af e3 33 c0 a5 9a 13 c0
       -3.0910153 -3.1749792 -2.8107717 -2.3063138
0001d0 5e e1 ee bf 56 74 c8 bf 3b dd 89 bf bd a2 92 bf
       -1.8662527 -1.5660503 -1.0770639 -1.1455914
0001e0 68 0a 4f bf ad 6b 3a bf 82 d5 52 bf fc 85 53 bf
       -0.80875254 -0.7282055 -0.8235704 -0.8262632
0001f0 6c ed 4a bf 96 2c 2a bf d7 7e 30 bf 4f a8 42 bf
       -0.7926853 -0.6647428 -0.6894354 -0.7603807
000200 9d dd 4e bf 39 7e 84 bf 43 91 9f bf 7c 7f b1 bf
       -0.80806905 -1.035102 -1.2466205 -1.386703
000210 56 ab b8 bf 23 8e cf bf f1 55 e5 bf 38 ae fa bf
       -1.4427288 -1.6215252 -1.7916852 -1.9584417
000220 23 aa 13 c0 8d 3a 13 c0 21 68 21 c0 c8 51 39 c0
       -2.3072593 -2.3004487 -2.5219805 -2.8956165
000230 1e 51 4d c0 e2 47 88 c0 2a 6b 9e c0 25 56 9f c0
       -3.208076 -4.2587748 -4.9505816 -4.9792657
000240 a5 ab ae c0 bc 57 bd c0 03 68 c8 c0 9c 0c ce c0
       -5.4584527 -5.91696 -6.2626967 -6.439039
000250 d0 fd c6 c0 ab 89 c5 c0 81 40 cc c0 7b cc db c0
       -6.218483 -6.173055 -6.382874 -6.868711
000260 06 1e b8 c0 81 b9 ae c0 f8 b9 9f c0 0f 24 95 c0
       -5.753665 -5.4601445 -4.9914513 -4.6606517
000270 25 69 0b c1 ee c4 0c c1 4e a0 12 c1 4d 41 1b c1
       -8.71317 -8.798079 -9.164137 -9.703443
000280 b9 28 1a c1 f4 07 07 c1 fb 7b ff c0 ee 8b 04 c1
       -9.634942 -8.439442 -7.9838843 -8.2841625
000290 84 21 06 c1 1a c1 ff c0 fa 6e f0 c0 70 1f eb c0
       -8.383183 -7.992322 -7.513547 -7.3475876
0002a0 46 bf ec c0 6f 10 b7 c0 6e 7e a9 c0 e8 d4 b4 c0
       -7.398349 -5.720756 -5.2966833 -5.6509895
0002b0 83 05 c8 c0 83 6f f1 c0 0c 71 ed c0 39 d2 f7 c0
       -6.250673 -7.5448623 -7.4200497 -7.744412
0002c0 94 c0 9b c0 9b c8 56 c0 b4 3c d0 be 42 4b c6 3e
       -4.867258 -3.355994 -0.40671313 0.38729292
0002d0 e4 74 9f 3e 34 8e cb 3e 06 be 03 3f ca 16 8c 3e
       0.31143868 0.3975693 0.5146183 0.27361137
0002e0 9b 9b 11 3f 88 1c 45 3f 02 97 1d 3f 49 c2 19 3f
       0.5687806 0.7699666 0.61558545 0.6006208
0002f0 5a 52 b7 3e d4 cc 85 3e 9d 86 39 3d 33 5c 94 3d
       0.35805017 0.26132834 0.045294393 0.07244148
000300 e5 ac 6c be dd 71 c3 be ad 78 25 bf 9c 8f 0c bf
       -0.23112829 -0.38172808 -0.6463726 -0.5490663
000310 48 d2 ef be cf 49 74 bf 7e ce 72 bf f2 a4 a2 bf
       -0.4684012 -0.9542512 -0.9484633 -1.2706587
000320 81 4c d7 bf 86 78 f3 bf aa 97 f4 bf ae 4c df bf
       -1.6820222 -1.9021156 -1.9108784 -1.7445276
000330 86 d3 e6 bf ec df f3 bf ce 4d ed bf 6c cc e6 bf
       -1.8033302 -1.905271 -1.8539369 -1.8031135
000340 8e 91 e9 bf db 97 ea bf 82 c5 e5 bf 15 a4 d0 bf
       -1.8247545 -1.8327593 -1.79509 -1.6300074
000350 06 31 cd bf 01 0a a5 bf 58 e4 b5 bf 4f d7 c7 bf
       -1.6030586 -1.2893678 -1.421031 -1.5612582
000360 4c d2 16 c0 2a df 61 c0 fc c8 75 c0 c2 e4 98 c0
       -2.3565855 -3.5292459 -3.840392 -4.7779245
000370 61 67 ab c0 63 e4 c2 c0 f0 f6 ca c0 87 60 d8 c0
       -5.3563695 -6.090379 -6.3426437 -6.761783
000380 de 0f d7 c0 ca eb d4 c0 f8 16 c7 c0 09 a9 c0 c0
       -6.720687 -6.653783 -6.221554 -6.020634
000390 88 71 c4 c0 26 9e c2 c0 62 ea ba c0 b7 53 b9 c0
       -6.138859 -6.081805 -5.841111 -5.791469
0003a0 b0 97 b1 c0 27 58 a0 c0 c1 ad 12 c1 85 65 14 c1
       -5.5497665 -5.010761 -9.16742 -9.274785
0003b0 cb a4 1a c1 76 6a 1f c1 86 bd 1e c1 a5 82 11 c1
       -9.665233 -9.963491 -9.92127 -9.094396
0003c0 41 3a 0a c1 66 04 0f c1 60 d0 0c c1 12 b6 08 c1
       -8.639222 -8.938574 -8.800873 -8.544451
0003d0 3c 58 ff c0 92 95 f6 c0 ad 1a f5 c0 7a 12 c5 c0
       -7.979521 -7.705758 -7.6595063 -6.1585054
0003e0 b6 92 b3 c0 ef c2 b4 c0 c4 68 d0 c0 7a 37 e6 c0
       -5.611659 -5.6487956 -6.512789 -7.194272
0003f0 e0 f4 f5 c0 10 9c 09 c1 d4 49 b6 c0 db 11 80 c0
       -7.686142 -8.600601 -5.696512 -4.0021796

python_hift_audio f4 [1, 37440]
000000 9a 5d b3 b5 4c 0d 87 37 cf 30 2a 37 c7 d3 0c 37
       -1.3363781e-06 1.6099446e-05 1.0144154e-05 8.3939585e-06
000010 03 5e 02 37 db 14 58 37 c8 90 7c b7 03 8e e0 37
       7.770493e-06 1.2879459e-05 -1.505408e-05 2.676901e-05
000020 0e 82 88 37 18 01 e3 36 bb fc 3b b6 fa af 4f 37
       1.6273025e-05 6.7652545e-06 -2.801228e-06 1.2379134e-05
000030 b3 a8 2e 37 10 d6 ce 35 c0 52 e3 34 75 3a f3 36
       1.04104865e-05 1.5410496e-06 4.2342253e-07 7.2487696e-06
000040 03 69 f0 36 03 8a 8a 36 c8 dc 2d b5 43 73 02 37
       7.1647823e-06 4.128787e-06 -6.47688e-07 7.77544e-06
000050 b0 c0 fe b5 8e 2b 25 37 4d ec 89 35 34 7e 9d 37
       -1.8980554e-06 9.844907e-06 1.0276068e-06 1.8774626e-05
000060 4d 6c fc 36 e1 1d 36 37 01 b9 3a 37 e3 90 f6 36
       7.522793e-06 1.0855002e-05 1.11295385e-05 7.3482383e-06
000070 85 70 f4 36 33 c2 63 37 a6 4f 20 37 2d 4f 54 37
       7.2848657e-06 1.357547e-05 9.555288e-06 1.2654619e-05
000080 f0 30 d2 36 dd bf a0 36 38 1e bc 36 a2 34 3a 37
       6.264185e-06 4.7907074e-06 5.6063545e-06 1.10987185e-05
000090 3b 9f e9 36 45 60 90 37 5b 27 39 37 69 b4 cd 36
       6.962478e-06 1.7210967e-05 1.1036022e-05 6.1304786e-06
0000a0 e0 d5 0a b6 65 ea 8a 37 a8 cd 2a 37 34 78 4e b6
       -2.0688094e-06 1.656003e-05 1.0180673e-05 -3.076636e-06
0000b0 40 e7 ff 36 f1 19 96 37 8c 85 d4 36 2f 6c 66 36
       7.6265133e-06 1.7893473e-05 6.3336392e-06 3.4335642e-06
0000c0 20 01 c5 b6 c3 9b 35 37 05 c6 0d 36 cb f2 ea 36
       -5.8711885e-06 1.0824707e-05 2.11259e-06 7.0020083e-06
0000d0 4b 8d 85 b6 6d b7 0c 37 ed 44 a2 b6 fd ec 11 37
       -3.9801575e-06 8.387357e-06 -4.8360002e-06 8.697852e-06
0000e0 20 9b 93 36 cb 34 8a 36 ab 7e 04 33 19 c7 1b 36
       4.3990003e-06 4.1188664e-06 3.084885e-08 2.321269e-06
0000f0 9b f0 51 b7 6b 74 f2 35 30 9e c5 b6 68 e9 e7 36
       -1.2513391e-05 1.8064287e-06 -5.889473e-06 6.9115085e-06
000100 40 61 c9 b6 85 e1 2d 37 15 01 eb b5 11 3e 1a 36
       -6.001588e-06 1.0364111e-05 -1.7509179e-06 2.2983916e-06
000110 b0 3c 8f b7 95 81 51 35 80 02 89 b5 96 42 59 b5
       -1.7075188e-05 7.8047134e-07 -1.0208023e-06 -8.0935695e-07
000120 a0 82 8a b6 8d 0f 5a b7 53 c6 8f b7 13 3d 97 b7
       -4.1279272e-06 -1.2997433e-05 -1.713928e-05 -1.8029043e-05
000130 2b 88 fd b7 55 a0 6d b7 3d 0a 2f b8 09 aa 1c b7
       -3.0223358e-05 -1.4163631e-05 -4.1732786e-05 -9.337914e-06
000140 3b b9 fd b7 8e 17 a6 b7 d9 45 88 b7 7e 08 80 b7
       -3.0246205e-05 -1.979971e-05 -1.6244989e-05 -1.5262744e-05
000150 e0 67 c8 b7 3b 50 42 b7 e7 77 a3 b7 09 e4 80 b7
       -2.3890228e-05 -1.1581981e-05 -1.9486948e-05 -1.5364976e-05
000160 60 38 74 b7 85 8f 07 b6 dc 76 ce b7 ce b6 3e b7
       -1.4556659e-05 -2.0200107e-06 -2.4612462e-05 -1.1367445e-05
000170 80 f4 cf b7 d4 58 dd b7 b5 f3 33 b6 34 30 b8 b7
       -2.4790177e-05 -2.6386617e-05 -2.6814935e-06 -2.1956956e-05
000180 dd 21 8e b7 eb ba fa b7 5b 0f aa b7 e9 bd e7 b7
       -1.6943488e-05 -2.9889363e-05 -2.027273e-05 -2.762578e-05
000190 c8 a1 b4 b7 f5 8a 70 b7 d9 34 8a b7 36 e0 9f b7
       -2.1533007e-05 -1.4337468e-05 -1.6475491e-05 -1.9058683e-05
0001a0 5d 6a f0 b7 57 b0 99 b7 5b 97 14 b7 bf f7 0a b8
       -2.8659759e-05 -1.8321136e-05 -8.856728e-06 -3.3132495e-05
0001b0 05 e9 c4 b7 83 7c b3 b7 f1 fd 1a b8 ef 5c 8d b7
       -2.3473529e-05 -2.1396443e-05 -3.6952963e-05 -1.6851785e-05
0001c0 2b 06 0f b8 5b 50 ef b7 f1 e3 ab b7 2d 6b 9f b7
       -3.40996e-05 -2.8528439e-05 -2.0490932e-05 -1.9004185e-05
0001d0 31 c3 05 b8 bc 27 04 b7 eb ff 9d 35 9c 5c 7c b7
       -3.1891457e-05 -7.8770645e-06 1.1771893e-06 -1.5041933e-05
0001e0 00 24 73 b4 63 07 42 b7 ab d7 2f 36 2c e1 22 35
       -2.2644235e-07 -1.1565021e-05 2.6202567e-06 6.067737e-07
0001f0 4b 13 3b b7 80 7d 76 b5 00 b5 29 b7 ad 1b 81 b7
       -1.1150561e-05 -9.182477e-07 -1.0115327e-05 -1.5390886e-05
000200 d8 83 80 b7 15 fd bd b6 f0 bd f5 b7 86 91 8d 36
       -1.5320184e-05 -5.6621016e-06 -2.9294722e-05 4.2190686e-06
000210 80 8f 67 b7 e6 bb 8b b7 4b be e7 b6 71 aa 38 b7
       -1.3802084e-05 -1.6657588e-05 -6.9064895e-06 -1.1006939e-05
000220 65 3b 4f b7 f7 27 37 37 2b 11 68 37 34 85 30 b7
       -1.235199e-05 1.0916955e-05 1.3832275e-05 -1.0521431e-05
000230 8b 7c ac 36 67 1e 16 b7 f8 43 1d b7 ec b7 c5 b5
       5.140498e-06 -8.947775e-06 -9.373754e-06 -1.4731172e-06
000240 e5 65 94 b7 db 47 cb b6 25 a9 2f b7 de 07 3d b7
       -1.7690423e-05 -6.0582365e-06 -1.0470195e-05 -1.126711e-05
000250 2b b2 0a b7 1b 90 d3 b7 2d 92 f4 b7 29 3d 70 b7
       -8.266924e-06 -2.5220264e-05 -2.9155135e-05 -1.4319355e-05
000260 98 d9 d2 b7 68 22 70 b7 4b 94 ce b7 8c 4d d3 b6
       -2.5135276e-05 -1.4313126e-05 -2.4626168e-05 -6.2973177e-06
000270 eb 53 92 b6 43 5c 03 b8 33 43 16 b7 6a 8e 85 b7
       -4.3609084e-06 -3.131876e-05 -8.956343e-06 -1.5921152e-05
000280 38 9d c1 b7 c1 b1 53 b7 a4 43 96 b7 7e 7e 01 b8
       -2.3080604e-05 -1.2617967e-05 -1.7912891e-05 -3.08738e-05
000290 eb 41 54 b7 78 a5 86 b7 5d 02 2b b7 cb e4 09 b6
       -1.2651532e-05 -1.6051097e-05 -1.01929445e-05 -2.0547766e-06
0002a0 80 16 a2 b7 b4 7a c3 36 f0 7c 42 b7 7e 88 1e b7
       -1.9322382e-05 5.8257374e-06 -1.159239e-05 -9.449313e-06
0002b0 a0 bd 18 b7 43 a2 f7 b7 fd 3b 61 b7 7d 43 e1 b7
       -9.1040565e-06 -2.9520254e-05 -1.3425012e-05 -2.6853517e-05
0002c0 55 ed 61 b5 2c 69 83 b7 4a 19 06 b8 f6 e0 91 b6
       -8.4164395e-07 -1.5665391e-05 -3.1971642e-05 -4.3475256e-06
0002d0 fb a7 c4 b7 a9 eb d7 b6 cd 3f 14 b7 24 0e 73 b7
       -2.3443243e-05 -6.4349338e-06 -8.836342e-06 -1.4487221e-05
0002e0 9d 16 9c b7 7a 62 0b b8 2f ab bc b7 76 98 5f b7
       -1.860718e-05 -3.3231896e-05 -2.249106e-05 -1.3327333e-05
0002f0 35 67 a4 b7 5b de be b7 c3 5e cb b7 04 7e 10 b8
       -1.9598383e-05 -2.2753307e-05 -2.4243613e-05 -3.4449637e-05
000300 00 34 35 b7 cc 3a e4 b7 b5 58 62 b6 01 38 8a b5
       -1.0800548e-05 -2.7207097e-05 -3.3728259e-06 -1.02981e-06
000310 3b 02 b1 b7 e1 7a a6 b6 c0 17 2d b7 8e ae b4 b7
       -2.1101083e-05 -4.9614905e-06 -1.0317133e-05 -2.1538955e-05
000320 a5 b5 98 b7 75 b3 18 b7 68 92 44 b7 5a ff d5 b7
       -1.8204397e-05 -9.101689e-06 -1.1716598e-05 -2.5510486e-05
000330 ab 51 65 b6 1b ef 71 b7 64 02 8a b7 f7 4d f0 36
       -3.4171196e-06 -1.44203905e-05 -1.6451995e-05 7.1616337e-06
000340 83 41 29 b8 49 8b bc 37 15 a8 0f 36 91 2d bb 36
       -4.0353752e-05 2.2476206e-05 2.1406497e-06 5.578339e-06
000350 2b dc 2e b6 2c 85 65 37 fb 79 b5 36 e9 7a 82 37
       -2.6056175e-06 1.368047e-05 5.4084207e-06 1.5554442e-05
000360 e0 f3 69 37 28 57 4e b6 f5 b6 8c 36 9d 8b 9a 37
       1.3944664e-05 -3.0747124e-06 4.193624e-06 1.8423243e-05
000370 cb fc 09 b7 b9 7e 11 38 50 b9 66 37 87 5d 7b 37
       -8.224694e-06 3.4688714e-05 1.3752215e-05 1.4982542e-05
000380 b5 07 03 38 5b d1 fb b6 db 4b ef 36 63 ad 85 37
       3.124001e-05 -7.504755e-06 7.131586e-06 1.5935575e-05
000390 e0 5e 2b b7 61 3a de 37 55 59 d5 b5 c9 ae 42 b7
       -1.0214484e-05 2.6491647e-05 -1.5895736e-06 -1.1603996e-05
0003a0 00 8a 52 35 eb 49 e0 b7 25 da 8f b6 56 9d 59 33
       7.843191e-07 -2.6737302e-05 -4.2871275e-06 5.0667346e-08
0003b0 55 0c a0 b6 33 e9 91 b6 25 a7 89 b6 81 ae c5 35
       -4.769807e-06 -4.3484847e-06 -4.1023764e-06 1.4728431e-06
0003c0 3b 6a cf 37 62 9d 99 37 13 4a 1c 37 d7 3b ff 37
       2.472579e-05 1.8312308e-05 9.315571e-06 3.0426234e-05
0003d0 55 30 49 36 84 1f 51 37 d5 dd 7e 35 82 a0 84 b7
       2.9979467e-06 1.2464709e-05 9.494518e-07 -1.5810368e-05
0003e0 00 c3 0e b7 69 48 8d b7 b5 25 9b b7 f1 9c 8d b7
       -8.5092615e-06 -1.6842228e-05 -1.8494999e-05 -1.6881591e-05
0003f0 00 2e 9b b5 2b 93 dc b5 25 ad 37 37 86 ed b4 37
       -1.1561788e-06 -1.6434109e-06 1.0947963e-05 2.1568278e-05

python_hift_mel_input f4 [1, 80, 78]
000000 68 ce 09 c1 2d a0 0e c1 5a 0e 13 c1 7a 9e 15 c1
       -8.612892 -8.914105 -9.191004 -9.351191
000010 4b 4a 16 c1 86 98 10 c1 54 21 0c c1 08 71 07 c1
       -9.393138 -9.037237 -8.758137 -8.4650955
000020 c8 91 06 c1 22 8b 07 c1 6d 16 08 c1 55 c4 08 c1
       -8.410591 -8.471468 -8.505475 -8.547933
000030 e9 28 06 c1 f4 6a cc c0 90 b8 c4 c0 4a d0 c3 c0
       -8.384988 -6.388056 -6.1475296 -6.119176
000040 35 44 d6 c0 85 c4 00 c1 35 78 00 c1 9e 02 07 c1
       -6.695826 -8.047978 -8.029347 -8.438139
000050 ac a0 a6 c0 62 79 74 c0 d1 77 84 c0 df c0 75 c0
       -5.2071133 -3.8199086 -4.139626 -3.839897
000060 a1 bd 76 c0 20 b8 87 c0 bd 62 8f c0 5f 1e 78 c0
       -3.855324 -4.241226 -4.480803 -3.8768537
000070 34 24 73 c0 ed 0e 94 c0 a7 b8 b1 c0 cf 24 ab c0
       -3.7990847 -4.626822 -5.5537906 -5.348243
000080 a2 54 8a c0 d0 8b 84 c0 bc 6b 74 c0 a1 ea 85 c0
       -4.322831 -4.142067 -3.8190756 -4.184891
000090 eb 18 81 c0 33 89 7f c0 da b5 79 c0 3e 0c 7b c0
       -4.0342917 -3.992749 -3.9017243 -3.9226222
0000a0 96 1b 83 c0 81 8e 74 c0 d7 50 7a c0 2d 41 69 c0
       -4.0971174 -3.8211977 -3.911184 -3.644603
0000b0 01 d1 59 c0 2c 51 48 c0 8b 86 47 c0 06 fb 47 c0
       -3.4033816 -3.1299543 -3.1175869 -3.1246963
0000c0 0a 0e 48 c0 eb 54 3f c0 82 ea 38 c0 c9 af 36 c0
       -3.1258569 -2.989558 -2.8893132 -2.854479
0000d0 27 27 37 c0 b4 20 2d c0 18 29 2d c0 10 46 3a c0
       -2.8617647 -2.705121 -2.7056332 -2.9105263
0000e0 09 5c 45 c0 ab 85 46 c0 f3 18 4d c0 84 79 4b c0
       -3.0837424 -3.1019084 -3.2046478 -3.1792917
0000f0 cd a4 5e c0 56 be 80 c0 a2 0e 90 c0 61 ab ac c0
       -3.4788086 -4.0232344 -4.501786 -5.3959203
000100 7e cf b8 c0 f6 ce bd c0 97 92 d7 c0 d8 2e e6 c0
       -5.7753286 -5.931514 -6.7366443 -7.193218
000110 7d 6c eb c0 70 38 e9 c0 72 b3 e7 c0 fa fa e7 c0
       -7.356993 -7.2881393 -7.240655 -7.249387
000120 5c e4 ed c0 03 ff fc c0 f2 ac dd c0 7f 37 c7 c0
       -7.434126 -7.9061294 -6.9273615 -6.2255244
000130 ee 87 a9 c0 e4 29 88 c0 0a 5c 06 c1 bf 91 0b c1
       -5.297843 -4.2551136 -8.39747 -8.723083
000140 c3 8e 0f c1 09 fc 18 c1 66 5a 16 c1 aa ad 05 c1
       -8.972354 -9.561532 -9.39707 -8.354898
000150 7f 2c fc c0 bc 0f fb c0 34 06 ff c0 fc 2f 02 c1
       -7.8804317 -7.8456707 -7.969507 -8.136715
000160 56 a2 fe c0 98 44 f7 c0 b8 a1 ec c0 ec 08 af c0
       -7.9573164 -7.7271233 -7.394741 -5.469839
000170 a5 6a a4 c0 f4 c6 a4 c0 53 82 b7 c0 b2 5a d9 c0
       -5.138018 -5.1492863 -5.7346587 -6.792321
000180 e7 1c e5 c0 70 b7 f7 c0 1d a1 91 c0 22 ef 6e c0
       -7.159778 -7.7411423 -4.550917 -3.7333455
000190 da 7c f1 bf c4 6f dc bf cc d3 18 c0 ca dc 39 c0
       -1.8866227 -1.7221608 -2.387927 -2.904101
0001a0 01 52 5a c0 70 93 42 c0 32 c6 0d c0 1e 34 ed bf
       -3.4112551 -3.0402489 -2.215222 -1.853153
0001b0 28 4d e8 bf 28 fb eb bf cd f6 1f c0 10 85 2d c0
       -1.8148546 -1.8436022 -2.4994385 -2.7112465
0001c0 32 d3 45 c0 dc 32 4b c0 af e3 33 c0 a5 9a 13 c0
       -3.0910153 -3.1749792 -2.8107717 -2.3063138
0001d0 5e e1 ee bf 56 74 c8 bf 3b dd 89 bf bd a2 92 bf
       -1.8662527 -1.5660503 -1.0770639 -1.1455914
0001e0 68 0a 4f bf ad 6b 3a bf 82 d5 52 bf fc 85 53 bf
       -0.80875254 -0.7282055 -0.8235704 -0.8262632
0001f0 6c ed 4a bf 96 2c 2a bf d7 7e 30 bf 4f a8 42 bf
       -0.7926853 -0.6647428 -0.6894354 -0.7603807
000200 9d dd 4e bf 39 7e 84 bf 43 91 9f bf 7c 7f b1 bf
       -0.80806905 -1.035102 -1.2466205 -1.386703
000210 56 ab b8 bf 23 8e cf bf f1 55 e5 bf 38 ae fa bf
       -1.4427288 -1.6215252 -1.7916852 -1.9584417
000220 23 aa 13 c0 8d 3a 13 c0 21 68 21 c0 c8 51 39 c0
       -2.3072593 -2.3004487 -2.5219805 -2.8956165
000230 1e 51 4d c0 e2 47 88 c0 2a 6b 9e c0 25 56 9f c0
       -3.208076 -4.2587748 -4.9505816 -4.9792657
000240 a5 ab ae c0 bc 57 bd c0 03 68 c8 c0 9c 0c ce c0
       -5.4584527 -5.91696 -6.2626967 -6.439039
000250 d0 fd c6 c0 ab 89 c5 c0 81 40 cc c0 7b cc db c0
       -6.218483 -6.173055 -6.382874 -6.868711
000260 06 1e b8 c0 81 b9 ae c0 f8 b9 9f c0 0f 24 95 c0
       -5.753665 -5.4601445 -4.9914513 -4.6606517
000270 25 69 0b c1 ee c4 0c c1 4e a0 12 c1 4d 41 1b c1
       -8.71317 -8.798079 -9.164137 -9.703443
000280 b9 28 1a c1 f4 07 07 c1 fb 7b ff c0 ee 8b 04 c1
       -9.634942 -8.439442 -7.9838843 -8.2841625
000290 84 21 06 c1 1a c1 ff c0 fa 6e f0 c0 70 1f eb c0
       -8.383183 -7.992322 -7.513547 -7.3475876
0002a0 46 bf ec c0 6f 10 b7 c0 6e 7e a9 c0 e8 d4 b4 c0
       -7.398349 -5.720756 -5.2966833 -5.6509895
0002b0 83 05 c8 c0 83 6f f1 c0 0c 71 ed c0 39 d2 f7 c0
       -6.250673 -7.5448623 -7.4200497 -7.744412
0002c0 94 c0 9b c0 9b c8 56 c0 b4 3c d0 be 42 4b c6 3e
       -4.867258 -3.355994 -0.40671313 0.38729292
0002d0 e4 74 9f 3e 34 8e cb 3e 06 be 03 3f ca 16 8c 3e
       0.31143868 0.3975693 0.5146183 0.27361137
0002e0 9b 9b 11 3f 88 1c 45 3f 02 97 1d 3f 49 c2 19 3f
       0.5687806 0.7699666 0.61558545 0.6006208
0002f0 5a 52 b7 3e d4 cc 85 3e 9d 86 39 3d 33 5c 94 3d
       0.35805017 0.26132834 0.045294393 0.07244148
000300 e5 ac 6c be dd 71 c3 be ad 78 25 bf 9c 8f 0c bf
       -0.23112829 -0.38172808 -0.6463726 -0.5490663
000310 48 d2 ef be cf 49 74 bf 7e ce 72 bf f2 a4 a2 bf
       -0.4684012 -0.9542512 -0.9484633 -1.2706587
000320 81 4c d7 bf 86 78 f3 bf aa 97 f4 bf ae 4c df bf
       -1.6820222 -1.9021156 -1.9108784 -1.7445276
000330 86 d3 e6 bf ec df f3 bf ce 4d ed bf 6c cc e6 bf
       -1.8033302 -1.905271 -1.8539369 -1.8031135
000340 8e 91 e9 bf db 97 ea bf 82 c5 e5 bf 15 a4 d0 bf
       -1.8247545 -1.8327593 -1.79509 -1.6300074
000350 06 31 cd bf 01 0a a5 bf 58 e4 b5 bf 4f d7 c7 bf
       -1.6030586 -1.2893678 -1.421031 -1.5612582
000360 4c d2 16 c0 2a df 61 c0 fc c8 75 c0 c2 e4 98 c0
       -2.3565855 -3.5292459 -3.840392 -4.7779245
000370 61 67 ab c0 63 e4 c2 c0 f0 f6 ca c0 87 60 d8 c0
       -5.3563695 -6.090379 -6.3426437 -6.761783
000380 de 0f d7 c0 ca eb d4 c0 f8 16 c7 c0 09 a9 c0 c0
       -6.720687 -6.653783 -6.221554 -6.020634
000390 88 71 c4 c0 26 9e c2 c0 62 ea ba c0 b7 53 b9 c0
       -6.138859 -6.081805 -5.841111 -5.791469
0003a0 b0 97 b1 c0 27 58 a0 c0 c1 ad 12 c1 85 65 14 c1
       -5.5497665 -5.010761 -9.16742 -9.274785
0003b0 cb a4 1a c1 76 6a 1f c1 86 bd 1e c1 a5 82 11 c1
       -9.665233 -9.963491 -9.92127 -9.094396
0003c0 41 3a 0a c1 66 04 0f c1 60 d0 0c c1 12 b6 08 c1
       -8.639222 -8.938574 -8.800873 -8.544451
0003d0 3c 58 ff c0 92 95 f6 c0 ad 1a f5 c0 7a 12 c5 c0
       -7.979521 -7.705758 -7.6595063 -6.1585054
0003e0 b6 92 b3 c0 ef c2 b4 c0 c4 68 d0 c0 7a 37 e6 c0
       -5.611659 -5.6487956 -6.512789 -7.194272
0003f0 e0 f4 f5 c0 10 9c 09 c1 d4 49 b6 c0 db 11 80 c0
       -7.686142 -8.600601 -5.696512 -4.0021796

python_mel_24k f4 [1, 80, 316]
000000 f4 1a f5 bf 28 0e 5b c0 fb 6e 8f c0 d3 08 91 c0
       -1.914885 -3.422739 -4.4822974 -4.532327
000010 ad f6 90 c0 9d e2 8d c0 2c cb 7f c0 91 cc 85 c0
       -4.530112 -4.4339128 -3.9967756 -4.1812215
000020 51 1c 89 c0 b9 da 86 c0 60 e4 9c c0 01 b6 9e c0
       -4.2847066 -4.2141995 -4.902878 -4.9597173
000030 7a 7b 94 c0 cd 2e 97 c0 15 79 a3 c0 2b 0a a5 c0
       -4.640073 -4.724463 -5.1085305 -5.157491
000040 a7 02 9e c0 47 c9 b1 c0 48 0c d7 c0 e7 eb e0 c0
       -4.937824 -5.55582 -6.720249 -7.0287967
000050 0a 39 c9 c0 c8 0e 80 c0 f2 e5 33 c0 03 c8 34 c0
       -6.288213 -4.0018044 -2.8109097 -2.8247077
000060 82 75 63 c0 f5 ff 82 c0 3b f7 81 c0 71 8a 76 c0
       -3.554047 -4.0937448 -4.0614295 -3.8521998
000070 1d d7 88 c0 d0 d4 53 c0 51 0c 45 c0 4c 5d 54 c0
       -4.276259 -3.309864 -3.0788767 -3.3181944
000080 ff a1 52 c0 25 82 6c c0 60 84 7e c0 ce 10 8e c0
       -3.2911375 -3.6954434 -3.9768295 -4.4395514
000090 6c 8d 91 c0 8b 57 91 c0 97 29 8a c0 5a dc 87 c0
       -4.5485134 -4.5419364 -4.317577 -4.2456484
0000a0 10 69 8c c0 85 28 89 c0 a1 49 92 c0 56 a5 a4 c0
       -4.387825 -4.286196 -4.571488 -5.1451826
0000b0 d6 5b a4 c0 5e f0 8e c0 f4 be 8a c0 3c ad 8a c0
       -5.1362104 -4.4668417 -4.3358097 -4.333647
0000c0 2c c6 82 c0 b8 a8 90 c0 54 64 a9 c0 22 70 aa c0
       -4.086691 -4.5205956 -5.293497 -5.326188
0000d0 6e 75 ba c0 26 1e db c0 0a d8 f1 c0 f8 1a fd c0
       -5.8268347 -6.84743 -7.557622 -7.909542
0000e0 db 39 00 c1 c5 13 00 c1 30 62 03 c1 0b 25 02 c1
       -8.014125 -8.004827 -8.211472 -8.134044
0000f0 63 b6 fb c0 10 50 e3 c0 9e 23 e7 c0 ee ad ec c0
       -7.866014 -7.1035233 -7.223098 -7.3962317
000100 31 59 ed c0 57 e2 f9 c0 d2 55 07 c1 c0 61 02 c1
       -7.4171376 -7.8088794 -8.458452 -8.148865
000110 09 60 ff c0 f8 fd 00 c1 d8 e8 fb c0 30 3e ff c0
       -7.980473 -8.062004 -7.8721733 -7.9763412
000120 45 94 05 c1 c4 ba 0a c1 4c d9 13 c1 42 08 1e c1
       -8.348699 -8.670597 -9.240551 -9.877016
000130 8f 45 20 c1 48 30 20 c1 c8 60 24 c1 ed 71 24 c1
       -10.016982 -10.011787 -10.273628 -10.277814
000140 87 3d 14 c1 8c d6 0f c1 3c 53 18 c1 22 61 14 c1
       -9.265021 -8.98988 -9.520321 -9.273714
000150 54 ee 10 c1 9f 32 0a c1 75 b9 08 c1 6f 66 0e c1
       -9.058186 -8.637359 -8.545278 -8.900008
000160 4d 94 0c c1 05 a2 14 c1 db b6 15 c1 44 51 18 c1
       -8.786206 -9.289556 -9.357142 -9.51984
000170 12 57 12 c1 59 2f 0c c1 17 72 13 c1 99 d4 1b c1
       -9.146257 -8.7615595 -9.215354 -9.739404
000180 c4 62 17 c1 21 41 19 c1 2a 77 02 c1 24 d4 e5 c0
       -9.461613 -9.578401 -8.154093 -7.182146
000190 3c 62 b0 c0 61 d8 89 c0 41 c5 82 c0 82 4a 74 c0
       -5.5119915 -4.3076634 -4.086579 -3.8170476
0001a0 08 a4 78 c0 e6 9e 85 c0 29 b9 79 c0 d8 ba 89 c0
       -3.8850117 -4.175647 -3.9019263 -4.304058
0001b0 55 12 87 c0 57 05 6c c0 af d9 67 c0 30 75 6d c0
       -4.220988 -3.687826 -3.6226614 -3.7102776
0001c0 03 93 79 c0 39 dd 86 c0 b3 6d 75 c0 dd e2 83 c0
       -3.899598 -4.2145047 -3.8348205 -4.1214433
0001d0 03 f6 6b c0 1d 9c 82 c0 33 3e 68 c0 bb 80 71 c0
       -3.6868904 -4.081557 -3.6287963 -3.773482
0001e0 e0 b9 68 c0 90 2e 6e c0 e8 22 76 c0 14 a9 84 c0
       -3.636345 -3.721592 -3.8458805 -4.1456394
0001f0 e0 51 81 c0 d6 dd 89 c0 6f 05 8f c0 47 23 73 c0
       -4.0412445 -4.3083296 -4.4694133 -3.7990282
000200 b0 69 66 c0 20 93 40 c0 6e 0e 59 c0 39 a5 82 c0
       -3.6002007 -3.0089798 -3.3915057 -4.082669
000210 5e 0c 4a c0 fd 99 29 c0 f7 e4 25 c0 a7 7d 4d c0
       -3.1570048 -2.6500237 -2.5921 -3.2107942
000220 20 4a 8c c0 f7 0e 78 c0 d4 37 65 c0 0d 46 6b c0
       -4.3840485 -3.8759134 -3.5815325 -3.6761506
000230 5d 73 6c c0 6c 72 68 c0 db 3d 5e c0 b6 12 86 c0
       -3.6945412 -3.6319838 -3.4725254 -4.189784
000240 8b 3a 83 c0 59 68 7f c0 77 1a 84 c0 42 ef 8f c0
       -4.1008964 -3.9907439 -4.1282306 -4.4979563
000250 c6 7b 87 c0 8b 83 73 c0 84 b9 69 c0 51 9c 81 c0
       -4.233859 -3.8049037 -3.651948 -4.0503316
000260 13 3a 97 c0 ef 48 96 c0 50 4b 95 c0 34 d4 84 c0
       -4.725839 -4.696403 -4.6654434 -4.1509037
000270 4b 5f 7e c0 ae 23 6d c0 e9 36 67 c0 90 91 8b c0
       -3.9745662 -3.7053027 -3.6127264 -4.361519
000280 3a c7 87 c0 d3 34 8c c0 79 c3 61 c0 bc 85 6a c0
       -4.2430696 -4.3814483 -3.5275557 -3.6644125
000290 90 3f 8d c0 c1 f7 78 c0 4c f4 75 c0 06 03 96 c0
       -4.414009 -3.8901217 -3.8430357 -4.687869
0002a0 40 41 90 c0 98 ef 78 c0 57 8d 74 c0 c1 a7 69 c0
       -4.507965 -3.8896236 -3.8211267 -3.650864
0002b0 72 6a 84 c0 13 e3 99 c0 7c 98 9f c0 55 18 94 c0
       -4.137994 -4.808969 -4.987364 -4.62797
0002c0 d0 d1 8e c0 fc 0e 94 c0 84 6b 92 c0 99 06 8f c0
       -4.463112 -4.626829 -4.5756245 -4.4695554
0002d0 2a 6f 88 c0 24 6d 73 c0 a5 dc 5e c0 e8 ec 53 c0
       -4.26357 -3.8035364 -3.482217 -3.3113346
0002e0 3d 6e 3f c0 92 1b 3c c0 55 be 75 c0 d7 8e 8e c0
       -2.9911034 -2.9391828 -3.839742 -4.4549365
0002f0 fd 45 9f c0 e0 f5 9b c0 32 2c 8e c0 1d 3f 98 c0
       -4.9772935 -4.873764 -4.442895 -4.7577043
000300 60 de 96 c0 f2 74 81 c0 d0 c4 6a c0 77 00 6d c0
       -4.7146454 -4.0455256 -3.6682625 -3.7031534
000310 84 cf 77 c0 48 a9 8f c0 a7 57 8a c0 a0 e8 75 c0
       -3.8720407 -4.489414 -4.3231997 -3.8423233
000320 5d 15 76 c0 e6 c4 70 c0 0c 42 6f c0 4a 0a 79 c0
       -3.845054 -3.7620177 -3.7384062 -3.891253
000330 43 1a 85 c0 52 80 90 c0 71 75 9f c0 1c b1 93 c0
       -4.159456 -4.515664 -4.983086 -4.61537
000340 b9 21 89 c0 ce 48 70 c0 1e 6b 6d c0 9a 05 85 c0
       -4.2853665 -3.7544436 -3.709663 -4.156934
000350 90 4a 86 c0 9a 13 66 c0 e2 dd 79 c0 a6 78 9c c0
       -4.196602 -3.5949464 -3.9041677 -4.8897276
000360 b9 a7 92 c0 de 49 89 c0 82 3f 97 c0 ef 90 a1 c0
       -4.582974 -4.290267 -4.7265024 -5.048942
000370 58 d1 b0 c0 10 b6 a6 c0 29 17 8d c0 e1 c4 98 c0
       -5.5255547 -5.2097244 -4.409077 -4.774033
000380 99 2d 88 c0 67 8a 74 c0 af ef 61 c0 8f 54 57 c0
       -4.255566 -3.8209474 -3.5302541 -3.364536
000390 b3 ce 89 c0 9a 14 ad c0 bd 98 a7 c0 93 45 aa c0
       -4.306482 -5.408765 -5.237395 -5.320993
0003a0 50 a0 8f c0 50 bd 84 c0 e2 59 8b c0 29 e1 95 c0
       -4.4883194 -4.1481094 -4.354722 -4.6837354
0003b0 06 27 90 c0 65 7b 9a c0 85 cc 94 c0 97 2f 7d c0
       -4.5047636 -4.827563 -4.649966 -3.9560297
0003c0 7c 6c 6a c0 a2 b3 84 c0 e8 9a a5 c0 c2 1d 87 c0
       -3.6628714 -4.146928 -5.1751595 -4.2223825
0003d0 ef 18 5a c0 c3 35 54 c0 32 ac 66 c0 de 83 78 c0
       -3.4077718 -3.3157814 -3.60426 -3.8830485
0003e0 14 ee 81 c0 35 70 82 c0 05 e2 86 c0 49 e3 8b c0
       -4.0603123 -4.076197 -4.2150903 -4.371495
0003f0 fe 9e 8d c0 69 80 62 c0 6d b1 5c c0 28 d6 87 c0
       -4.425658 -3.5390875 -3.4483292 -4.244892

python_spk_emb f4 [1, 192]
000000 74 58 fd be 0a bf 4f bf c9 d2 6d 3f b8 23 67 bf
       -0.49481547 -0.8115088 0.9289976 -0.9028888
000010 78 bf 66 bf 52 e0 a7 bf 34 56 ac 3e f8 e1 34 be
       -0.9013591 -1.3115332 0.33659518 -0.17664325
000020 ac d4 e4 3e ba 90 12 40 84 5d 74 bf 94 09 89 bd
       0.44693506 2.2900834 -0.95455194 -0.0669128
000030 10 c4 de be 26 30 54 bf 88 af f0 bd 2c fd 88 3f
       -0.4350896 -0.8288597 -0.1175223 1.0702262
000040 3b 8d 3a be 2f 4d cf be 33 5f d4 be c4 25 15 bf
       -0.18217938 -0.40488574 -0.4147888 -0.5826075
000050 fc db aa 3d 60 67 d0 bc 00 ce 72 bc 79 c6 9a bf
       0.0834274 -0.025439918 -0.014819622 -1.2091819
000060 6e d5 ea 3e 0d d3 1e 3f d3 4d e8 be ac 63 fe 3f
       0.4586596 0.6204079 -0.45371875 1.9874167
000070 71 d1 ac bf 7e 44 53 bf 88 c1 64 bf 4e 99 11 3f
       -1.3501416 -0.82526386 -0.89357805 0.5687455
000080 dc 27 01 be 85 30 04 3f 1b 60 2c bf 34 ba 23 be
       -0.12612861 0.51636535 -0.67334145 -0.15989
000090 50 8f db bf b6 6b 16 bf d9 04 79 bf 59 a2 af bf
       -1.715311 -0.58758104 -0.9727302 -1.372142
0000a0 22 4b 5d 3f 9b 1c 52 bf 56 28 84 be ba c2 88 3f
       0.8644277 -0.820749 -0.25812024 1.0684426
0000b0 9b 1a 8d 3f f1 ca 36 bf 9a 48 e2 3f f3 d2 37 3f
       1.1023744 -0.71403414 1.7678406 0.7180626
0000c0 4c dd c4 3f 66 14 33 bf d2 42 8b 3f a7 99 9e bf
       1.5380034 -0.69953 1.0879767 -1.2390641
0000d0 4f ca ee 3f 86 e3 8e 3f 5e 04 58 bf bc b5 be bf
       1.865549 1.1163185 -0.84381664 -1.4899211
0000e0 9d 0e 01 bf 6a a8 1c bf 87 f8 aa bf b6 05 ff 3f
       -0.50412923 -0.6119448 -1.3357095 1.9923618
0000f0 00 38 a2 3a 02 f0 87 3e 88 ec 94 bf 74 d5 32 3e
       0.0012376308 0.265503 -1.1634684 0.17464238
000100 8a 6e f9 be 04 fe 87 3f f8 09 b2 3d 37 18 92 3f
       -0.48717147 1.0624394 0.08693308 1.141364
000110 90 47 bd be ae 60 98 3e 64 dc 50 3f 12 15 44 3e
       -0.3696866 0.2976126 0.8158629 0.19148663
000120 b0 37 1d bf 44 14 4b 3f 43 1d 95 bf a3 2d 79 be
       -0.614131 0.793278 -1.1649555 -0.24333815
000130 98 82 95 bf 13 4f 77 bf cb ad 50 3f 68 6e a7 3f
       -1.1680479 -0.9660503 0.8151519 1.3080568
000140 ac 5c 2b 3f e0 21 aa bf 25 2e 2e 3f 93 46 bb be
       0.6693828 -1.3291588 0.6803916 -0.3657728
000150 92 d2 b8 be aa 68 4f bf 80 cc 90 3f 56 02 1a bf
       -0.36098152 -0.8101908 1.1312408 -0.60159814
000160 49 ce 13 be 8b d7 ba 3e d2 e6 f6 3e 1e 8c 0e 3f
       -0.1443416 0.3649257 0.48222977 0.5568255
000170 8b a4 04 bf d5 a7 9a 3f 31 af 91 bf 3e 66 66 bf
       -0.5181357 1.2082468 -1.1381589 -0.8999976
000180 b7 db 5b bf 4a 7f e9 3e 24 99 c2 3e 7d cc 1e 3f
       -0.85882133 0.45604926 0.38007462 0.62030774
000190 6c 2c 22 3c 60 6a bc bb 1c ec ad 3e 1a 6b a2 3f
       0.009898286 -0.0057499856 0.339692 1.2688935
0001a0 7a 54 c4 be 57 92 5b bf 21 ee 8d bf 0a bb bb 3e
       -0.383457 -0.8577017 -1.1088296 0.36666137
0001b0 ae c2 10 40 71 bc 91 3f 9d 2e 6a bf cc 2a 08 be
       2.2618823 1.1385633 -0.91477376 -0.13297576
0001c0 49 da 83 bf 4e 68 86 bf 61 1f 7f 3f 20 08 bd 3f
       -1.030099 -1.0500581 0.99657255 1.4768105
0001d0 36 11 b9 be 8a db b1 bf 92 45 84 be 74 02 e5 bd
       -0.36145943 -1.3895123 -0.25834328 -0.111821085
0001e0 f0 c3 37 bd 7b 89 07 bf 4d d5 1d be be ec cf 3e
       -0.044864595 -0.52944154 -0.15413399 0.40610307
0001f0 a3 82 c4 be 77 0b 44 3f fe ef c6 3e 42 25 fa be
       -0.38380918 0.76579994 0.38854975 -0.4885655
000200 45 77 c4 bf b4 d5 9b bf 68 34 5a bf ad 02 0b bf
       -1.5348898 -1.2174592 -0.85236216 -0.5430096
000210 7c f8 03 3f 96 3f 98 3f 96 58 ac bf 1a e3 a2 3f
       0.5155103 1.1894405 -1.3464534 1.2725556
000220 f6 e8 84 3f 92 b4 76 bf d8 fc f3 3e 2f f2 9b bf
       1.0383594 -0.9636928 0.47653842 -1.2183284
000230 91 e1 b2 3f b4 54 21 3f e8 af 8c 3f 84 44 4c bd
       1.3975087 0.6301987 1.0991182 -0.04987003
000240 ce a7 31 bf 5a b9 e4 3e 19 3c 4c be 44 4c fd 3d
       -0.69396675 0.44672662 -0.199448 0.12368062
000250 93 7c be bf 48 9e 1a be 14 fb 8c 3e c4 5f 99 3d
       -1.4881767 -0.15099442 0.27535307 0.07488969
000260 45 3b d1 3f c4 13 89 bf 0a b0 9a bf 4b b5 8e be
       1.6346213 -1.0709157 -1.2084973 -0.2787269
000270 7b db ce be 2d d7 bd be d4 81 b6 bd c4 96 15 3f
       -0.40401825 -0.3707823 -0.089114815 0.58433175
000280 de 2d 20 c0 50 6a b7 3c b6 5b e1 3e 56 73 62 bf
       -2.5027995 0.022389561 0.44015282 -0.8845724
000290 c6 7d 22 3f 06 32 75 3f 2c 7b 9f 3f 0e 1e 9c bf
       0.63473165 0.95779455 1.2459464 -1.2196672
0002a0 c4 e1 e7 3d d8 15 ab bf 54 15 1f be a8 3e c3 3e
       0.11322358 -1.3366041 -0.1553548 0.3813374
0002b0 96 fa 87 be 52 ed 11 bf e8 fe a2 bd 67 ff c6 bf
       -0.2655837 -0.5700275 -0.07958776 -1.5546693
0002c0 90 67 29 3e 0c 0e a1 3e f8 fa 21 3f 26 07 06 3f
       0.16543412 0.3145603 0.6327357 0.5235466
0002d0 c7 b2 07 3f c6 c6 a4 bf e2 4a 17 bf 1e 14 2e 3f
       0.5300717 -1.2873161 -0.5909864 0.67999446
0002e0 14 67 5f bf 50 02 96 be cc 12 89 bf fa 0a 3a 3f
       -0.8726666 -0.2929864 -1.0708861 0.72673
0002f0 d0 34 08 3f 07 38 b2 be f8 4d 2f 3e 66 3c ab bc
       0.53205585 -0.3480837 0.17119586 -0.020902824

python_speech_tokens i4 [1, 158]
000000 ff 09 00 00 99 05 00 00 55 00 00 00 50 00 00 00
       2559 1433 85 80
000010 b2 09 00 00 08 0b 00 00 92 01 00 00 f2 01 00 00
       2482 2824 402 498
000020 17 13 00 00 c2 0a 00 00 3d 02 00 00 74 04 00 00
       4887 2754 573 1140
000030 e5 05 00 00 50 00 00 00 50 00 00 00 f5 06 00 00
       1509 80 80 1781
000040 48 11 00 00 47 11 00 00 55 12 00 00 aa 12 00 00
       4424 4423 4693 4778
000050 60 17 00 00 4a 18 00 00 bf 0f 00 00 14 07 00 00
       5984 6218 4031 1812
000060 ff 18 00 00 4d 13 00 00 4d 13 00 00 cf 09 00 00
       6399 4941 4941 2511
000070 52 00 00 00 00 00 00 00 8b 08 00 00 8b 08 00 00
       82 0 2187 2187
000080 8b 08 00 00 8b 08 00 00 8b 08 00 00 a3 00 00 00
       2187 2187 2187 163
000090 dc 08 00 00 8b 08 00 00 8b 08 00 00 8b 08 00 00
       2268 2187 2187 2187
0000a0 8b 08 00 00 8b 08 00 00 8b 08 00 00 8b 08 00 00
       2187 2187 2187 2187
0000b0 8b 08 00 00 f8 08 00 00 2e 09 00 00 00 00 00 00
       2187 2296 2350 0
0000c0 f4 00 00 00 02 02 00 00 12 01 00 00 6b 09 00 00
       244 514 274 2411
0000d0 45 0c 00 00 75 09 00 00 1e 0a 00 00 48 0f 00 00
       3141 2421 2590 3912
0000e0 d6 10 00 00 57 17 00 00 6e 0f 00 00 f6 17 00 00
       4310 5975 3950 6134
0000f0 0b 18 00 00 f5 18 00 00 d9 04 00 00 38 18 00 00
       6155 6389 1241 6200
000100 98 02 00 00 3d 0f 00 00 3a 0f 00 00 57 0c 00 00
       664 3901 3898 3159
000110 17 13 00 00 f3 15 00 00 aa 07 00 00 db 18 00 00
       4887 5619 1962 6363
000120 8f 19 00 00 8f 01 00 00 a3 04 00 00 c1 13 00 00
       6543 399 1187 5057
000130 a0 13 00 00 bb 13 00 00 93 18 00 00 23 16 00 00
       5024 5051 6291 5667
000140 30 13 00 00 56 07 00 00 88 18 00 00 26 0f 00 00
       4912 1878 6280 3878
000150 2f 06 00 00 a4 18 00 00 ec 13 00 00 9b 13 00 00
       1583 6308 5100 5019
000160 1f 0a 00 00 48 11 00 00 78 03 00 00 82 00 00 00
       2591 4424 888 130
000170 0a 01 00 00 09 02 00 00 c9 08 00 00 f5 03 00 00
       266 521 2249 1013
000180 68 0f 00 00 46 19 00 00 99 02 00 00 8e 02 00 00
       3944 6470 665 654
000190 4c 0b 00 00 98 03 00 00 60 08 00 00 86 02 00 00
       2892 920 2144 646
0001a0 50 00 00 00 7d 0f 00 00 1e 0a 00 00 85 02 00 00
       80 3965 2590 645
0001b0 c8 04 00 00 fc 12 00 00 3a 02 00 00 9e 13 00 00
       1224 4860 570 5022
0001c0 12 18 00 00 29 16 00 00 ff 12 00 00 68 13 00 00
       6162 5673 4863 4968
0001d0 9e 0d 00 00 a5 18 00 00 db 12 00 00 e1 13 00 00
       3486 6309 4827 5089
0001e0 d4 10 00 00 57 19 00 00 92 17 00 00 63 06 00 00
       4308 6487 6034 1635
0001f0 f1 00 00 00 f0 00 00 00 e7 09 00 00 70 0a 00 00
       241 240 2535 2672
000200 1f 02 00 00 bc 0d 00 00 87 07 00 00 83 00 00 00
       543 3516 1927 131
000210 75 06 00 00 29 16 00 00 c8 0a 00 00 97 02 00 00
       1653 5673 2760 663
000220 14 0b 00 00 e6 12 00 00 30 0d 00 00 98 19 00 00
       2836 4838 3376 6552
000230 90 19 00 00 d3 02 00 00 44 08 00 00 f0 0d 00 00
       6544 723 2116 3568
000240 98 02 00 00 f4 0f 00 00 73 14 00 00 20 12 00 00
       664 4084 5235 4640
000250 5d 03 00 00 4e 00 00 00 e5 05 00 00 c1 14 00 00
       861 78 1509 5313
000260 be 14 00 00 e8 11 00 00 15 0c 00 00 1f 00 00 00
       5310 4584 3093 31
000270 52 00 00 00 dd 08 00 00
       82 2269

python_hift_source f2 [1, 1, 37440]
000000 c1 23 0e 23 74 20 d1 20 7f 21 ae 22 f5 21 0c 1c
       0.015144 0.01378 0.0087 0.00941 0.010735 0.01305 0.011635 0.003952
000010 ec 22 34 21 bc 1c 20 22 11 1d a3 20 71 1f 0b 22
       0.01352 0.01016 0.004623 0.01196 0.004948 0.009056 0.007267 0.0118
000020 15 1c 8c 23 12 23 1a 21 9c 1b fe 1d 67 1c 67 21
       0.003986 0.01474 0.01381 0.009964 0.003716 0.00585 0.0043 0.01055
000030 da 22 b7 20 2a 1f a5 1d fb 21 32 23 b3 23 7c 20
       0.01338 0.00921 0.006996 0.005512 0.01168 0.01405 0.01504 0.00876
000040 ac 22 e4 1d 1e 1b 39 23 2c 21 eb 1d da 21 85 1e
       0.01303 0.005753 0.003475 0.01411 0.0101 0.00578 0.01143 0.006367
000050 35 20 91 20 50 1d a4 20 ae 23 fd 1e 40 23 40 22
       0.00822 0.00892 0.005188 0.00906 0.015 0.006824 0.01416 0.01221
000060 13 23 0d 21 00 1e 64 21 10 21 94 1c 25 1c c4 1e
       0.01382 0.009865 0.00586 0.01053 0.00989 0.00447 0.004047 0.006607
000070 f8 1d e5 1f b3 22 c9 22 02 1e a8 1c c6 20 97 23
       0.00583 0.00771 0.013084 0.01325 0.005867 0.004547 0.00932 0.014824
000080 78 22 21 1f fe 21 3a 21 71 20 8b 20 7e 22 cb 22
       0.012634 0.00696 0.0117 0.01021 0.008675 0.00887 0.01268 0.01327
000090 89 21 38 1c 54 21 09 1d ed 20 16 22 22 21 04 1d
       0.01081 0.00412 0.01041 0.004917 0.00962 0.01189 0.010025 0.004898
0000a0 8d 22 c6 1b 61 20 62 21 41 20 90 21 1d 1c 16 1d
       0.012794 0.003796 0.00855 0.01051 0.00831 0.010864 0.004017 0.004967
0000b0 47 1e 67 21 33 23 1a 1f f0 22 d9 20 5d 21 a9 22
       0.00613 0.01055 0.01406 0.006935 0.01355 0.00947 0.010475 0.01301
0000c0 87 22 4a 20 45 1f 58 23 ad 20 3d 1c 15 1c 58 22
       0.01275 0.00838 0.0071 0.01434 0.00913 0.00414 0.003986 0.01239
0000d0 ee 1d d0 21 4a 20 25 1e a9 21 09 21 e8 21 94 1c
       0.00579 0.01135 0.00838 0.006 0.011055 0.009834 0.011536 0.00447
0000e0 1c 21 2e 1e 67 21 47 21 bd 21 0f 20 64 20 94 21
       0.00998 0.006035 0.01055 0.01031 0.01121 0.00793 0.008575 0.010895
0000f0 81 1f ce 20 3e 1d 75 23 f6 1d ad 22 a0 1d 0c 20
       0.007328 0.009384 0.00512 0.014565 0.00582 0.01304 0.005493 0.007904
000100 d4 20 ee 21 b9 1e f8 1c 02 21 7d 20 a3 1d 23 20
       0.00943 0.01158 0.006565 0.004852 0.00978 0.008766 0.005505 0.00808
000110 21 1d 14 20 d2 1c 7b 1f 42 20 3b 20 c2 1e cc 22
       0.00501 0.007965 0.004707 0.007305 0.008316 0.00826 0.0066 0.013275
000120 de 21 b4 22 1e 20 e3 21 1a 22 75 1c 06 24 7b 20
       0.01146 0.01309 0.00804 0.0115 0.01192 0.004353 0.01572 0.00875
000130 9e 22 48 22 4f 20 d5 20 e7 1f b9 1e 41 23 87 1d
       0.012924 0.01227 0.008415 0.00944 0.007717 0.006565 0.01417 0.005398
000140 5d 23 35 1c e6 21 c1 21 24 21 bb 1c c4 20 91 20
       0.01438 0.00411 0.01152 0.01124 0.01004 0.00462 0.00931 0.00892
000150 d1 23 59 21 e3 1f 4e 22 00 22 98 23 e3 20 45 20
       0.01527 0.010445 0.0077 0.012314 0.01172 0.01483 0.009544 0.00834
000160 59 21 1a 1f c8 22 84 1f 20 1d 7a 1f 41 22 30 1e
       0.010445 0.006935 0.013245 0.00734 0.005005 0.0073 0.012215 0.006042
000170 9d 1f 5d 23 c4 1e c9 22 de 22 82 20 d2 1d 90 23
       0.007435 0.01438 0.006607 0.01325 0.01341 0.008804 0.005684 0.01477
000180 9c 1e b6 21 04 22 3b 22 20 21 11 20 87 1c 13 1f
       0.006454 0.011154 0.01175 0.01217 0.01001 0.00794 0.00442 0.00691
000190 39 20 a1 1e 72 21 f3 1e 22 1d eb 20 34 1d 83 1c
       0.00825 0.006474 0.010635 0.006786 0.005013 0.009605 0.00508 0.004406
0001a0 f7 1d 47 1d 0d 1c 88 20 c9 22 7d 21 78 20 bb 1f
       0.005825 0.005154 0.003956 0.00885 0.01325 0.01072 0.00873 0.00755
0001b0 94 21 d6 1e db 21 30 1c da 1c 36 1f b2 22 0d 23
       0.010895 0.006676 0.01144 0.00409 0.004738 0.007042 0.01308 0.01377
0001c0 9b 20 06 1e 7e 1c 7b 23 05 23 f3 22 b6 1f 03 21
       0.008995 0.005882 0.004387 0.01461 0.01371 0.01357 0.00753 0.00979
0001d0 7d 21 3e 22 1b 20 94 21 66 1b a2 20 db 1a a6 22
       0.01072 0.01219 0.00802 0.010895 0.003613 0.00905 0.003347 0.012985
0001e0 81 20 64 1d 4e 22 12 1f df 22 6d 1c b8 1d 83 1d
       0.0088 0.005264 0.012314 0.006905 0.01342 0.004322 0.005585 0.005383
0001f0 da 22 b1 22 07 1f dd 20 dd 1c f5 21 a6 20 61 20
       0.01338 0.01307 0.006863 0.0095 0.00475 0.011635 0.00908 0.00855
