rust/rust_intermediates.safetensors (safetensors, 657556 bytes, 3 tensors)

f0 f4 [1, 1, 171]
0.31451282 0.12867442 0.05579415 0.105259985 0.6330737 0.6626761 0.671939 0.6718202
0.73986965 0.7355298 0.7024703 0.7951052 0.72403824 0.8781779 0.43120953 22.025091
6.601325 230.75792 1126.5072 1282.9008 1431.9921 837.2671 163.8603 366.0597
725.83936 1129.8701 1695.7465 1246.1389 26.738504 320.57742 368.01886 405.91684
440.63 454.45932 446.38446 411.10883 341.3235 1501.8507 949.37946 7080.672
15592.983 30300.826 43458.117 51552.395 53577.074 55797.63 49784.332 36977.496
31616.596 38376.465 51873.86 68170.53 74364.41 63237.02 32987.426 5589.919
252.13719 0.50961834 0.0018891096 20.43635 73.20505 55.95294 24.046085 76.312775
159.0487 263.9473 285.13297 268.6754 259.69232 286.6593 276.32645 280.30313
283.4492 6.0588603 37.493557 1379.9043 5760.167 9624.652 8834.175 5046.409
1615.1156 57.721756 31.524708 27.992542 596.4412 3913.7722 13649.976 41601.273
74093.52 72739.234 44379.12 19898.04 30664.895 71866.05 103590.016 103313.05
85645.87 74275.016 69416.875 55789.3 41873.547 11476.898 1417.2031 563.1871
0.014278501 154.71042 357.4494 362.93457 309.8751 94.547806 280.032 2248.2556
8088.995 14097.083 13407.938 7258.452 12.500672 420.78882 431.64673 416.732
401.47903 347.17874 1712.6315 297.36194 6962.1875 11004.729 11179.793 9837.559
9503.546 9277.569 9184.214 9485.158 6971.133 3743.6323 1221.9205 1413.7661
5585.504 37098.37 81525.47 83943.87 51018.508 13805.604 225.40524 1665.776
3066.5378 8051.857 10009.277 8261.753 6758.8687 4371.417 6640.616 15743.742
40519.062 64758.57 51015.336 24048.656 808.1685 1.9042486 7.4578214 279.2499
1.3072476 0.73180866 0.7470518 0.75143504 0.8139317 0.70064557 0.57986903 0.67486334
0.6367616 0.5220567 0.5142804
00000000: d307 a13e 3ac3 033e 6888 643d 8c92 d73d
00000010: 1e11 223f 24a5 293f 3204 2c3f 69fc 2b3f
00000020: 1968 3d3f ae4b 3c3f 18d5 333f 048c 4b3f
00000030: 925a 393f 44d0 603f 7fc7 dc3e 6333 b041
00000040: 0e3e d340 07c2 6643 3bd0 8c44 d35c a044
00000050: bfff b244 1851 5144 3ddc 2343 a407 b743
00000060: b875 3544 d83b 8d44 e3f7 d344 72c4 9b44
00000070: 75e8 d541 e949 a043 6a02 b843 5bf5 ca43
00000080: a450 dc43 cb3a e343 3631 df43 ee8d cd43
00000090: 68a9 aa43 39bb bb44 4958 6d44 6045 dd45
000000a0: efa3 7346 a7b9 ec46 1ec2 2947 6560 4947
000000b0: 1349 5147 a1f5 5947 5578 4247 7f71 1047
000000c0: 3101 f746 77e8 1547 dca1 4a47 4425 8547
000000d0: 343e 9147 0505 7747 6ddb 0047 5aaf ae45
000000e0: 1f23 7c43 5976 023f 009c f73a a57d a341
000000f0: fc68 9242 d0cf 5f42 625e c041 24a0 9842
00000100: 780c 1f43 41f9 8343 0591 8e43 7456 8643
00000110: 9ed8 8143 6454 8f43 c929 8a43 cd26 8c43
00000120: 7fb9 8d43 2fe2 c140 67f9 1542 f07c ac44
00000130: 5601 b445 9c62 1646 b308 0a46 46b3 9d45
00000140: b3e3 c944 14e3 6642 9a32 fc41 baf0 df41
00000150: 3d1c 1544 5b9c 7445 e747 5546 4681 2247
00000160: c3b6 9047 9e11 8e47 1f5b 2d47 1474 9b46
00000170: ca91 ef46 065d 8c47 0253 ca47 86c8 c947
00000180: ef46 a747 8211 9147 7094 8747 4ded 5947
00000190: 8c91 2347 9853 3346 8026 b144 f9cb 0c44
000001a0: 60f0 693c deb5 1a43 86b9 b243 a077 b543
000001b0: 03f0 9a43 7a18 bd42 1904 8c43 1784 0c45
000001c0: f6c7 fc45 5544 5c46 c17f 5146 9ed3 e245
000001d0: c102 4841 f864 d243 c8d2 d743 b25d d043
000001e0: 51bd c843 e196 ad43 3514 d644 54ae 9443
000001f0: 8091 d945 eaf2 2b46 2caf 2e46 3cb6 1946
00000200: 2f7e 1446 47f6 1046 db80 0f46 a234 1446
00000210: 10d9 d945 1efa 6945 75bd 9844 84b8 b044
00000220: 088c ae45 5fea 1047 bc3a 9f47 eff3 a347
00000230: 824a 4747 6ab6 5746 be67 6143 d538 d044
00000240: 9ba8 3f45 db9e fb45 1c65 1c46 0317 0146
00000250: f336 d345 569b 8845 ee84 cf45 f8fe 7546
00000260: 1047 1e47 92f6 7c47 5647 4747 50e1 bb46
00000270: c90a 4a44 6bbe f33f 79a6 ee40 fd9f 8b43
00000280: e453 a73f d057 3b3f c93e 3f3f 0c5e 403f
00000290: d45d 503f 825d 333f 4c72 143f d8c3 2c3f
000002a0: cf02 233f 82a5 053f e1a7 033f

source f4 [1, 1, 82080]
-0.0068207267 0.010249816 0.010249467 0.0038531485 0.0002472417 -0.001034981 -0.010523914 0.010291559
0.011249718 0.015107955 -0.0058912546 0.014733537 -0.007921742 0.005326029 0.014931252 -0.0025771006
0.0036766937 -0.004469158 0.004295186 -0.003042031 0.00041342198 -0.0072447145 -3.949483e-05 -0.0015863314
-0.0044443845 -0.016274158 0.0008480556 0.018811896 0.016316902 -0.0155528 -0.003383394 0.011069207
-0.016835298 -0.0015423471 -0.0020365028 -0.0126768295 0.002304813 -0.0036261417 -0.0047333995 0.011343666
-0.016181529 -0.013057848 -0.017799733 -0.020253552 -0.015824033 0.0074052657 0.011068076 0.0040523773
-0.0041256906 -0.010905275 0.007778954 -0.009675877 6.321387e-05 0.009746625 -0.0019378796 0.0012287663
0.013793459 -0.0126061 0.0040909136 -0.00825851 0.009003944 0.0030972047 0.008179114 0.00610585
-0.0013900344 0.008710295 -0.00541906 -0.007500139 -0.012371312 -0.009568675 0.0052200938 -0.002979291
0.00792075 -0.016741838 0.0059165447 -0.0053538345 0.011614522 -0.0099441195 -0.000560424 -0.00283179
0.009321829 0.009362735 0.013413285 0.005392677 -0.015026609 0.0004401495 -0.0030818563 -0.014544204
-0.01504409 -0.0021437574 -0.0025257613 -0.0042440267 0.01889768 0.008551835 0.01032712 -0.015822269
-0.009416896 0.0056354823 0.001816566 0.0002117151 0.026547313 0.0041194987 0.028798234 -0.0028780526
-0.0030364217 0.0052940203 0.013216073 0.0052916585 -0.00846799 -0.019164065 -0.009151668 -0.008552628
0.00081071066 0.0061707143 0.009623094 0.011734545 0.010228635 -0.00857671 -0.02316846 -0.001009951
0.002267289 0.0043300325 -0.012796649 0.0110335685 -0.006059891 0.008993092 -0.011159299 -0.0053775664
0.0018589193 0.0019996893 0.015961718 0.009272512 0.0044460823 0.0061788857 -0.013287981 0.0014803648
0.00032066507 0.0011445092 -0.013976429 0.02240033 0.009113662 -0.009828325 0.0042327265 -0.0030247134
-0.0047782958 -0.005350439 -0.00042805728 -0.012091289 0.00050166826 0.023842746 0.013116044 0.014150381
-0.010103108 0.007447538 0.0051719197 -0.014646889 -0.0021971941 0.014596325 -0.017980453 0.0026973288
0.008376606 0.013068814 -0.005670378 -0.0033205762 0.024168048 0.001899925 -0.01045041 0.0042017526
-0.0063098324 0.009749726 0.0051350505 0.008897559 0.0163607 -0.0059530274 -0.0070835706 -0.0031828796
0.020108618 0.0010058162 0.0031239374 0.019130182 0.026631214 0.01612665 0.010013554 -0.0319863
0.0028214722 -0.010046264 0.0069683567 -0.00621437 0.008338609 0.0008612147 0.0062312214 0.008203732
-0.016669452 -0.008571962 0.0051055425 0.007556062 0.00092243124 -0.011046333 -0.01916402 0.00079304795
0.006929171 0.0009531053 -0.0016987498 0.0029954377 0.0077546197 -0.0070311767 -0.0033293443 -0.0037790458
0.0017581268 -0.010251234 0.0039257878 0.008150058 0.0110836765 0.01515325 -0.015356371 0.018536985
-0.0025941131 0.0038179895 0.015806261 -0.011301268 0.006344267 0.00814998 -0.00062174833 0.002329613
0.011218064 0.00087087974 0.0024853752 -0.0068533984 -0.0075735757 -0.0051962323 -0.0106863035 -0.0022398252
0.019538354 0.022461522 0.007153892 0.014867556 -0.0065626865 -0.012313418 0.01672743 -0.0056606797
-0.009189397 -0.00043864382 -0.0033675784 0.02007907 -0.007380317 -0.004752866 -0.017980738 0.0086828135
-0.0080816075 -0.019108599 0.0025621771 -0.018601604 0.0099304505 0.0047804685 -0.009689661 -0.016996868
00000000: 6780 dfbb d8ee 273c 61ed 273c 1b85 7c3b
00000010: 38a0 8139 33a8 87ba 7f6c 2cbc ed9d 283c
00000020: bd50 383c 5b87 773c 6d0b c1bb ef64 713c
00000030: 32ca 01bc f885 ae3b 36a2 743c 93e4 28bb
00000040: aff4 703b 0472 92bb a2be 8c3b d05c 47bb
00000050: 8fc0 d839 1265 edbb 40a7 25b8 73ec cfba
00000060: 33a2 91bb 6251 85bc 0c50 5e3a 681b 9a3c
00000070: 06ab 853c 2cd1 7ebc efbb 5dbb 9f5b 353c
00000080: 2eea 89bc 9528 caba d976 05bb 7ab2 4fbc
00000090: 580c 173b 90a4 6dbb a21a 9bbb c9da 393c
000000a0: 208f 84bc 96f0 55bc bfd0 91bc c7ea a5bc
000000b0: 67a1 81bc dfa7 f23b e056 353c cec9 843b
000000c0: cd30 87bb 0aac 32bc 99e6 fe3b 9287 1ebc
000000d0: b091 8438 4fb0 1f3c 7300 feba 8e0e a13a
000000e0: f6fd 613c d189 4ebc 120d 863b b44e 07bc
000000f0: 4785 133c 79fa 4a3b b101 063c 9513 c83b
00000100: d131 b6ba a0b5 0e3c 5f92 b1bb bac3 f5bb
00000110: 0bb1 4abc efc5 1cbc 520d ab3b 3540 43bb
00000120: 09c6 013c 2e26 89bc 93df c13b 386f afbb
00000130: d64a 3e3c a9ec 22bc 6be9 12ba 8d95 39bb
00000140: 96ba 183c 2866 193c 65c3 5b3c 0eb5 b03b
00000150: 2b32 76bc dec3 e639 f8f8 49bb d04a 6ebc
00000160: 7d7b 76bc 487e 0cbb 3e87 25bb 7a11 8bbb
00000170: 4fcf 9a3c ff1c 0c3c 1533 293c b49d 81bc
00000180: 5349 1abc daa9 b83b d719 ee3a d7ff 5d39
00000190: c079 d93c dcfc 863b 46ea eb3c b69d 3cbb
000001a0: b4fe 46bb 7679 ad3b 3a88 583c a665 ad3b
000001b0: 53bd 0abc f5fd 9cbc e1f0 15bc 5220 0cbc
000001c0: df85 543a b433 ca3b 2faa 1d3c 4042 403c
000001d0: 0196 273c 5485 0cbc c8cb bdbc 5560 84ba
000001e0: cc96 143b f2e2 8d3b 09a9 51bc 24c6 343c
000001f0: 0d92 c6bb c357 133c 7ed5 36bc 4c36 b0bb
00000200: fba6 f33a 380d 033b 26c2 823c bceb 173c
00000210: 71b0 913b 4078 ca3b d5b5 59bc cd08 c23a
00000220: f01e a839 5b03 963a 64fd 64bc e680 b73c
00000230: 7851 153c fc06 21bc afb2 8a3b 453a 46bb
00000240: 4093 9cbb bc52 afbb e06c e0b9 8b1a 46bc
00000250: 6382 033a dd51 c33c ade4 563c 00d7 673c
00000260: 8287 25bc 7a0a f43b 3579 a93b 81f9 6fbc
00000270: cdfe 0fbb 6d25 6f3c be4b 93bc abc5 303b
00000280: 083e 093c 941e 563c 94ce b9bb 069e 59bb
00000290: 12fc c53c e706 f93a 3238 2bbc dbae 893b
000002a0: b6c2 cebb 51bd 1f3c ed43 a83b 11c7 113c
000002b0: e006 863c 9d11 c3bb 4c1d e8bb dc97 50bb
000002c0: d4ba a43c 97d5 833a f9ba 4c3b e6b6 9c3c
000002d0: b429 da3c 091c 843c e40f 243c 1104 03bd
000002e0: 73e8 383b 1699 24bc d056 e43b eaa1 cbbb
000002f0: a99e 083c 24c3 613a 462f cc3b f268 063c
00000300: 608e 88bc 6a71 0cbc 654c a73b d898 f73b
00000310: 50cf 713a aefb 34bc ddfd 9cbc 8ce4 4f3a
00000320: 190e e33b d0d9 793a 96a8 deba 1b4f 443b
00000330: 771a fe3b c965 e6bb 2131 5abb dea9 77bb
00000340: f270 e63a cbf4 27bc e5a3 803b d287 053c
00000350: 4f98 353c 5645 783c 4a99 7bbc e0da 973c
00000360: ff01 2abb 3c37 7a3b 227c 813c f428 39bc
00000370: 92e3 cf3b 7e87 053c d3fc 22ba 6cac 183b
00000380: f9cb 373c c04b 643a ade1 223b 7992 e0bb
00000390: c22b f8bb 2845 aabb 9b15 2fbc 08ca 12bb
000003a0: e60e a03c 3a01 b83c 326b ea3b 0d97 733c
000003b0: ce0b d7bb 38be 49bc f707 893c 397d b9bb
000003c0: 208f 16bc c7f9 e5b9 97b2 5cbb dd7c a43c
000003d0: 96d6 f1bb eebd 9bbb 574c 93bc 5c42 0e3c
000003e0: b868 04bc a389 9cbc 33ea 273b 6462 98bc
000003f0: 54b3 223c 7aa5 9c3b 62c1 1ebc 043d 8bbc

upsampled_f0 f4 [1, 1, 82080]
0.31451282 0.31451282 0.31451282 0.31451282 0.31451282 0.31451282 0.31451282 0.31451282
0.31451282 0.31451282 0.31451282 0.31451282 0.31451282 0.31451282 0.31451282 0.31451282
0.31451282 0.31451282 0.31451282 0.31451282 0.31451282 0.31451282 0.31451282 0.31451282
0.31451282 0.31451282 0.31451282 0.31451282 0.31451282 0.31451282 0.31451282 0.31451282
0.31451282 0.31451282 0.31451282 0.31451282 0.31451282 0.31451282 0.31451282 0.31451282
0.31451282 0.31451282 0.31451282 0.31451282 0.31451282 0.31451282 0.31451282 0.31451282
0.31451282 0.31451282 0.31451282 0.31451282 0.31451282 0.31451282 0.31451282 0.31451282
0.31451282 0.31451282 0.31451282 0.31451282 0.31451282 0.31451282 0.31451282 0.31451282
0.31451282 0.31451282 0.31451282 0.31451282 0.31451282 0.31451282 0.31451282 0.31451282
0.31451282 0.31451282 0.31451282 0.31451282 0.31451282 0.31451282 0.31451282 0.31451282
0.31451282 0.31451282 0.31451282 0.31451282 0.31451282 0.31451282 0.31451282 0.31451282
0.31451282 0.31451282 0.31451282 0.31451282 0.31451282 0.31451282 0.31451282 0.31451282
0.31451282 0.31451282 0.31451282 0.31451282 0.31451282 0.31451282 0.31451282 0.31451282
0.31451282 0.31451282 0.31451282 0.31451282 0.31451282 0.31451282 0.31451282 0.31451282
0.31451282 0.31451282 0.31451282 0.31451282 0.31451282 0.31451282 0.31451282 0.31451282
0.31451282 0.31451282 0.31451282 0.31451282 0.31451282 0.31451282 0.31451282 0.31451282
0.31451282 0.31451282 0.31451282 0.31451282 0.31451282 0.31451282 0.31451282 0.31451282
0.31451282 0.31451282 0.31451282 0.31451282 0.31451282 0.31451282 0.31451282 0.31451282
0.31451282 0.31451282 0.31451282 0.31451282 0.31451282 0.31451282 0.31451282 0.31451282
0.31451282 0.31451282 0.31451282 0.31451282 0.31451282 0.31451282 0.31451282 0.31451282
0.31451282 0.31451282 0.31451282 0.31451282 0.31451282 0.31451282 0.31451282 0.31451282
0.31451282 0.31451282 0.31451282 0.31451282 0.31451282 0.31451282 0.31451282 0.31451282
0.31451282 0.31451282 0.31451282 0.31451282 0.31451282 0.31451282 0.31451282 0.31451282
0.31451282 0.31451282 0.31451282 0.31451282 0.31451282 0.31451282 0.31451282 0.31451282
0.31451282 0.31451282 0.31451282 0.31451282 0.31451282 0.31451282 0.31451282 0.31451282
0.31451282 0.31451282 0.31451282 0.31451282 0.31451282 0.31451282 0.31451282 0.31451282
0.31451282 0.31451282 0.31451282 0.31451282 0.31451282 0.31451282 0.31451282 0.31451282
0.31451282 0.31451282 0.31451282 0.31451282 0.31451282 0.31451282 0.31451282 0.31451282
0.31451282 0.31451282 0.31451282 0.31451282 0.31451282 0.31451282 0.31451282 0.31451282
0.31451282 0.31451282 0.31451282 0.31451282 0.31451282 0.31451282 0.31451282 0.31451282
0.31451282 0.31451282 0.31451282 0.31451282 0.31451282 0.31451282 0.31451282 0.31451282
0.31451282 0.31451282 0.31451282 0.31451282 0.31451282 0.31451282 0.31451282 0.31451282
00000000: d307 a13e d307 a13e d307 a13e d307 a13e
00000010: d307 a13e d307 a13e d307 a13e d307 a13e
00000020: d307 a13e d307 a13e d307 a13e d307 a13e
00000030: d307 a13e d307 a13e d307 a13e d307 a13e
00000040: d307 a13e d307 a13e d307 a13e d307 a13e
00000050: d307 a13e d307 a13e d307 a13e d307 a13e
00000060: d307 a13e d307 a13e d307 a13e d307 a13e
00000070: d307 a13e d307 a13e d307 a13e d307 a13e
00000080: d307 a13e d307 a13e d307 a13e d307 a13e
00000090: d307 a13e d307 a13e d307 a13e d307 a13e
000000a0: d307 a13e d307 a13e d307 a13e d307 a13e
000000b0: d307 a13e d307 a13e d307 a13e d307 a13e
000000c0: d307 a13e d307 a13e d307 a13e d307 a13e
000000d0: d307 a13e d307 a13e d307 a13e d307 a13e
000000e0: d307 a13e d307 a13e d307 a13e d307 a13e
000000f0: d307 a13e d307 a13e d307 a13e d307 a13e
00000100: d307 a13e d307 a13e d307 a13e d307 a13e
00000110: d307 a13e d307 a13e d307 a13e d307 a13e
00000120: d307 a13e d307 a13e d307 a13e d307 a13e
00000130: d307 a13e d307 a13e d307 a13e d307 a13e
00000140: d307 a13e d307 a13e d307 a13e d307 a13e
00000150: d307 a13e d307 a13e d307 a13e d307 a13e
00000160: d307 a13e d307 a13e d307 a13e d307 a13e
00000170: d307 a13e d307 a13e d307 a13e d307 a13e
00000180: d307 a13e d307 a13e d307 a13e d307 a13e
00000190: d307 a13e d307 a13e d307 a13e d307 a13e
000001a0: d307 a13e d307 a13e d307 a13e d307 a13e
000001b0: d307 a13e d307 a13e d307 a13e d307 a13e
000001c0: d307 a13e d307 a13e d307 a13e d307 a13e
000001d0: d307 a13e d307 a13e d307 a13e d307 a13e
000001e0: d307 a13e d307 a13e d307 a13e d307 a13e
000001f0: d307 a13e d307 a13e d307 a13e d307 a13e
00000200: d307 a13e d307 a13e d307 a13e d307 a13e
00000210: d307 a13e d307 a13e d307 a13e d307 a13e
00000220: d307 a13e d307 a13e d307 a13e d307 a13e
00000230: d307 a13e d307 a13e d307 a13e d307 a13e
00000240: d307 a13e d307 a13e d307 a13e d307 a13e
00000250: d307 a13e d307 a13e d307 a13e d307 a13e
00000260: d307 a13e d307 a13e d307 a13e d307 a13e
00000270: d307 a13e d307 a13e d307 a13e d307 a13e
00000280: d307 a13e d307 a13e d307 a13e d307 a13e
00000290: d307 a13e d307 a13e d307 a13e d307 a13e
000002a0: d307 a13e d307 a13e d307 a13e d307 a13e
000002b0: d307 a13e d307 a13e d307 a13e d307 a13e
000002c0: d307 a13e d307 a13e d307 a13e d307 a13e
000002d0: d307 a13e d307 a13e d307 a13e d307 a13e
000002e0: d307 a13e d307 a13e d307 a13e d307 a13e
000002f0: d307 a13e d307 a13e d307 a13e d307 a13e
00000300: d307 a13e d307 a13e d307 a13e d307 a13e
00000310: d307 a13e d307 a13e d307 a13e d307 a13e
00000320: d307 a13e d307 a13e d307 a13e d307 a13e
00000330: d307 a13e d307 a13e d307 a13e d307 a13e
00000340: d307 a13e d307 a13e d307 a13e d307 a13e
00000350: d307 a13e d307 a13e d307 a13e d307 a13e
00000360: d307 a13e d307 a13e d307 a13e d307 a13e
00000370: d307 a13e d307 a13e d307 a13e d307 a13e
00000380: d307 a13e d307 a13e d307 a13e d307 a13e
00000390: d307 a13e d307 a13e d307 a13e d307 a13e
000003a0: d307 a13e d307 a13e d307 a13e d307 a13e
000003b0: d307 a13e d307 a13e d307 a13e d307 a13e
000003c0: d307 a13e d307 a13e d307 a13e d307 a13e
000003d0: d307 a13e d307 a13e d307 a13e d307 a13e
000003e0: d307 a13e d307 a13e d307 a13e d307 a13e
000003f0: d307 a13e d307 a13e d307 a13e d307 a13e
